model.pt (torch, 25269 bytes, 13 tensors)

layer_1.weight f4 [64, 6]
00000000: 6a6c 8fbe b057 bfbe f3fd 8bbe 0c41 7b3d
00000010: b598 96be cb4e 60be c925 a1be fbf0 24be
00000020: 5a50 8a3e 7a3a e73d 1505 e73d 7f31 93be
00000030: 7913 b1be bd39 1bbe 1db1 a33d 3292 5d3e
00000040: bc00 2e3d 25d8 be3e 2c1e 71bd af32 aebe
00000050: 33a8 2fbe 59d0 70bd 8e00 753c f0cf 8abe
00000060: bf69 acbe f84c 043c b0cf c2be 6629 cebd
00000070: d3ec 47be b4a2 963c 2462 cb3e 0094 853e
00000080: 8f6c 493e cc28 973e 61e3 773e 4428 983d
00000090: c1f7 a73d 619b 8bbe 5e41 46be 4426 6d3e
000000a0: 8544 d1be dc6f 8a3e a6e2 ce3e b115 95be
000000b0: 3c84 dcbc 367e c4bd 6a81 cb3d 0e5a d03e
000000c0: a712 d0bd 7949 9f3c bbf1 163d 23e4 15be
000000d0: 3465 6a3e d0f5 003e 0b3b 91bc 758a a83d
000000e0: 140c c83e 4d59 c1be cd85 983e 106d 9b3e
000000f0: da81 fb3d e516 f6bd 7c97 903a 06f0 38bd
00000100: b898 3ebd 8a5f bebe 4e2c 5cbe 01cf 6f3e
00000110: d977 a4be 4db3 ccbe 8257 c8be 1c8a ac3e
00000120: 328a 3e3e 70e3 bdbe d007 2f3e e008 71bd
00000130: 2cf7 cfbd 8378 d03e feaf bf3e 84bf 773e
00000140: 6702 89be 532c 2a3e 0349 88be cf24 64bd
00000150: 2499 b9be 5432 f4bd 399f b1be 97b6 163e
00000160: 588f 5d3e d225 81be 47a4 c0be f7d5 2c3e
00000170: 5185 4dbe 5213 af3d 2a68 85be b616 86be
00000180: c948 ff3d 69d2 a43e 0add be3d 336d c73e
00000190: a0f9 6fbd 4b4c c9bd 27b8 b23e e8a7 993e
000001a0: fbad b9be 6a66 623d 131a 033e ea8d cbbe
000001b0: 6ac4 06be 18d0 373e bcf8 9f3e 5b8b a03d
000001c0: e097 863e e2cd df3d 5164 b6bd 10c3 223e
000001d0: 80b8 1d3e 8578 6b3e 8bc7 6fbe 58ad a33e
000001e0: 8bab 83bd c710 b4be 845c d0bd d868 923e
000001f0: 20f0 71be c656 563e f2e0 473e bc4c 3a3e
00000200: afce 25be e571 9f3c 450e 663e bebc b53e
00000210: 4e50 68bd 4822 be3e 8e70 ba3e 0f2d aebe
00000220: fb7b c9be 9144 5cbd dd36 3f3e 86a4 4cbd
00000230: 9b6f 6ebe 1e4e eabd 28e8 d3bd 8b2b 88be
00000240: 178e de3c 9d26 d13e 7582 b7be 2b5e 6cbd
00000250: cb77 9a3e 07be 3abe 6f18 1ebd 6829 89bd
00000260: 2c47 cabd f8d4 c43e b42f c8bd 5ea6 cbbd
00000270: 73a9 623d 6620 ccbe 0b1c a0be baa1 01be
00000280: 93db 9a3d e0ff 3bbc 5f88 a83d 0673 6c3d
00000290: ac82 5f3e 332b 8fbe 831b a9be 9522 98be
000002a0: e7f0 383e 5ac4 8d3e ac4a 833d 3143 a0be
000002b0: bd3b b93d c81b 3c3e c410 a53d 6dde 38bd
000002c0: 4f86 a5bd b19e 87be af19 ca3b a851 023d
000002d0: d07c 163d 5d6b 97bc 321d 2cbb c40b ae3e
000002e0: c706 cebe 4446 b4be 26a2 5abe 27d2 493e
000002f0: f5c7 913d d35b b13e 0f13 c13e ab46 af3e
00000300: 450f 24bd d679 c53e 065e 70be cfd4 29be
00000310: 1f86 c13e 35f8 c4bd f62f 3abe 1d45 413d
00000320: 3381 42be d6b7 d43d 639d 863e 0b81 a73e
00000330: 8be0 cf3e 319a 403d a0e7 a2be 3bf5 343e
00000340: d8c7 73be cccd 2fbe 3816 d6be d871 10bd
00000350: 46a5 993e de04 af3e ba3d 14be b2ae cdbe
00000360: 818d a73e a1a3 a9bd d3f1 883e bfb6 283d
00000370: e574 b0be e617 823d 9392 eebc b7ea 5a3c
00000380: d322 383e 1905 a9be 1384 913a 060d 893e
00000390: 00fe 7f3e 4a11 b9be 29e8 8bbe 4195 593e
000003a0: 035f 843e ccde d1be 52f8 b53d fb99 813d
000003b0: d071 983e 6d24 4fbe dca4 eb3d d4b3 cbbe
000003c0: ae84 e03e d836 6b3e c3eb 023d e6a4 a13e
000003d0: 3708 25bd 2111 72be 2006 b6be 0b11 493b
000003e0: be08 c13e 5e2f 8ebd 3544 c43d 6837 ae3e
000003f0: 6ceb 7e3e f8e4 a4be 5379 193e 8bf7 04bd
-0.280124 -0.37371588 -0.27342185 0.06134133 -0.2941338 -0.21905057 -0.3147414 -0.16107552
0.27014428 0.112904504 0.11280266 -0.287487 -0.3458517 -0.15158744 0.07992766 0.216378
0.04248117 0.3727428 -0.058866665 -0.34023044 -0.17154007 -0.058792446 0.0149537455 -0.2711177
-0.33674428 0.008074991 -0.38049078 -0.1006649 -0.19523935 0.01838813 0.39723313 0.26089478
0.19670318 0.29523313 0.24207832 0.07429555 0.08201552 -0.27266982 -0.19360873 0.23159128
-0.4087259 0.27038467 0.40407294 -0.29118112 -0.026918523 -0.09594385 0.09936793 0.40693706
-0.10159808 0.019444214 0.036851626 -0.14637809 0.22890168 0.1259377 -0.01772835 0.082295336
0.39071715 -0.37763444 0.29789582 0.30356646 0.122806266 -0.120160855 0.0011031474 -0.04515078
-0.046532363 -0.37182266 -0.21501276 0.2341881 -0.32122687 -0.39980546 -0.39129263 0.3369912
0.18607405 -0.37087584 0.17092824 -0.058846354 -0.10154566 0.40716943 0.3743896 0.24194151
-0.26759645 0.16618471 -0.26618204 -0.055699166 -0.3624965 -0.11923662 -0.3469179 0.1471809
0.21636713 -0.25224167 -0.37625334 0.16878496 -0.20070387 0.08548607 -0.26056033 -0.26189202
0.124650545 0.3219178 0.093195036 0.389505 -0.05858767 -0.09829005 0.34906122 0.30010915
-0.3626555 0.05527345 0.12802915 -0.3975671 -0.13160864 0.17950475 0.31244457 0.0783908
0.26287746 0.10927941 -0.089058526 0.15894723 0.15402412 0.22995193 -0.23415963 0.31968188
-0.064292036 -0.3516905 -0.10173896 0.28595614 -0.23626757 0.20931539 0.19519404 0.18193334
-0.16192125 0.019463489 0.22466381 0.3549556 -0.05671721 0.3713553 0.36413997 -0.34018752
-0.39352402 -0.053776328 0.18673272 -0.04996159 -0.23284762 -0.11440681 -0.10347015 -0.2659572
0.027167363 0.40849772 -0.35841718 -0.057706993 0.3016952 -0.18236552 -0.03859752 -0.06697351
-0.09876856 0.38443732 -0.09774724 -0.099438414 0.05533738 -0.39868468 -0.31271395 -0.1265935
0.07561412 -0.01147458 0.08229136 0.057726882 0.21827191 -0.27962646 -0.33028802 -0.29713884
0.18060647 0.27688867 0.06410727 -0.31301263 0.09044597 0.18369973 0.080598384 -0.045133997
-0.08082258 -0.2648826 0.0061676125 0.031816155 0.036740124 -0.018483812 -0.002626252 0.3399335
-0.40239546 -0.35209858 -0.21350917 0.19709073 0.07118217 0.3464037 0.37709853 0.34233603
-0.040053625 0.38569516 -0.23473367 -0.16585086 0.3779764 -0.09617654 -0.18182358 0.047185052
-0.18994598 0.103866264 0.26291952 0.3271564 0.40601 0.04702205 -0.3181734 0.17671673
-0.23806703 -0.17168349 -0.41813827 -0.03526482 0.30008906 0.341834 -0.14476672 -0.40172344
0.32725146 -0.08283163 0.26746997 0.041189905 -0.34464183 0.063522145 -0.029122626 0.013361624
0.17982034 -0.33011702 0.0011101983 0.2676775 0.24999237 -0.36146003 -0.27325562 0.21248342
0.25853738 -0.40990293 0.08885254 0.063281976 0.29774332 -0.20228739 0.11506054 -0.39785635
0.43851227 0.2297014 0.03196312 0.3157112 -0.040291037 -0.23639347 -0.35551548 0.0030680324
0.37701982 -0.06942628 0.09583322 0.34026647 0.24894494 -0.3220594 0.14987688 -0.032462638

layer_1.bias f4 [64]
00000000: a7f1 483e 413a 573e 8617 cd3e 90cc 133e
00000010: f719 1fbd f0e6 c23c 383c 9a3d fd77 423e
00000020: 60f7 5bbe 7c45 853e cdf4 bbbe c17f c43e
00000030: 5324 6abd 5328 bcbd dd58 7c3d e297 cebd
00000040: 7be3 373e e7d7 933e 1b47 d03d 22d5 c03e
00000050: f977 e53c 1afe 6f3e bce9 743d 59c5 a4bc
00000060: 6535 563e 49c4 40be c3da 1bbe b224 2e3e
00000070: 0f06 39be cd30 1abe de58 51bd fa72 013c
00000080: 7750 96be 724b 2bbe cf0d 843e 19a0 c23d
00000090: 9bbb 84be ea01 ddbd 961f babe d44c 9b3e
000000a0: 64dd 573e e678 ae3e 3476 b63e 2dd9 b1be
000000b0: 4e9b 30bc 370d 63be a0a9 59be 1f6c ac3e
000000c0: e22c 253e b4a5 a53e ee4d b2bd 157d c13e
000000d0: d27e 81be 5491 5abd 276c b43d 6788 103e
000000e0: cf6a 27be f4a3 10be 2107 26bd 8bf4 9d3e
000000f0: ab54 b9be 77fa 953d 3a4b e7bd a0bf 123e
0.19623433 0.21018316 0.4005701 0.14433503 -0.03884312 0.02379176 0.07531017 0.18991084
-0.21481085 0.26029575 -0.36710206 0.38378718 -0.057163548 -0.09187379 0.061608184 -0.10087563
0.1795787 0.28875658 0.10169812 0.37662607 0.028011309 0.23436776 0.05979322 -0.020113634
0.20918806 -0.18824877 -0.1522017 0.17006186 -0.18068717 -0.15057679 -0.05111014 0.007900948
-0.29358265 -0.16727999 0.25791785 0.095031925 -0.25924382 -0.10791381 -0.36352223 0.30332053
0.21080548 0.34076613 0.35637057 -0.34736004 -0.010779215 -0.2217301 -0.21256113 0.3367624
0.16130403 0.32352984 -0.0870627 0.37790743 -0.2529207 -0.053361252 0.08809691 0.14114533
-0.16349338 -0.14125043 -0.040534142 0.30850634 -0.3619741 0.07323163 -0.11293645 0.14330912

layer_2.weight f4 [64, 64]
00000000: 4a2c 51bc 5bc5 ae3d d602 9d3d 0354 073e
00000010: d510 02bd 187b 363c 52b5 053e 6a34 94bd
00000020: 6263 053d 1d5f c73d fa90 05be c4e5 c43d
00000030: 848b 8cbd 3117 6abd cf36 663d e7ed 013e
00000040: 1cc5 89bd f731 b33c af40 fdbd 5525 17bd
00000050: 15bb ef3c edc3 a63d 619a 173b 964a 5dbd
00000060: 8ff7 8a3d fed0 7dbd 6578 1b3c d9a2 cd3d
00000070: 0319 a83d 24c5 eebd a309 8fbd aa80 cfbd
00000080: 19e0 373d f2e6 b7bd 58c1 6f3b 9fad c93c
00000090: 9280 05be 0699 463c 428a c2bb d5a3 17bd
000000a0: e666 aabd 0f39 29bd 37e3 94bd 0a40 3bbd
000000b0: 7bd4 27bd 0784 8d3d cef9 063e 47d9 26bd
000000c0: 9cdc 333d 0ba2 6dbd c20e fbba a11e a63c
000000d0: 4efd 80bc 78cb dfbd 6215 8d3d 6e96 53bd
000000e0: 1ebe c4bb 6874 ddbd aa58 113e 0f10 70bd
000000f0: 5e97 96bc 1d28 863d 01c9 cb3d 36af 90bd
00000100: 0232 bbbd c14a 873d 1219 be3c 750a 623d
00000110: 4c82 18be e98b 7f3d e117 86bc 7eae 153d
00000120: 6357 b43d 3f55 d03d 1b52 a8bb e5cd 9d3d
00000130: 87b0 d4bd 990e 5f3d c7ec 0abe 2fc9 7abd
00000140: 5e5c 9ebd 9e7e 993d 4232 883d 0c65 4e39
00000150: 87cf da3c 31ea e23d 179c 033d 58ac 7cbd
00000160: d28b dd3d e500 a5bc d06f 88bd 8fd7 c73d
00000170: e355 a83d 40c8 8dbd 6902 0dbe 74ec 25bd
00000180: aa1c 78bd 677c 80bd 06a3 a8bd 8c5b f3bd
00000190: f066 73bd 391c ae3d df2a e23d 53d6 c3bd
000001a0: d8d3 99bc 5419 653d a9a8 9c3d cfb1 6e3d
000001b0: dd58 8fbc 5a12 5cbc 455f c63b 2e57 ccbd
000001c0: 6154 043e d1c0 ad3c 7a3a 1d3d d22c 2fbd
000001d0: 6437 87bd d102 bd3c 83cc 333c 0bdc cd3d
000001e0: 9681 c5ba f82a 9bbd 0bed 71bd 0bf5 443d
000001f0: 84dd 28bd ab03 debc 1377 a7bd 1771 8abd
00000200: d63c 5fbd 034a 10be 9b7e e33d 8768 c2bb
00000210: 98c7 0dbe 8fe7 d1bd db88 36bd 6ac5 51bd
00000220: a369 c5bd a5ca 55bd 4aaa e2bd 4f63 df3d
00000230: 5b0b 8f3d fdc9 903b 74b2 ce3d 1c76 0ebe
00000240: 0763 21bd a87c 823c 7165 583d 0077 a5bd
00000250: 58a0 00be 6c0e f53c 4058 803d bd32 b7bd
00000260: a37f 23bd d25d 043d 2dcc 803d b788 6f3d
00000270: d661 a9bd 5bf3 b0bd 52cf a43d 36ad 8b3c
00000280: 8f01 cfbd aafa 1a3d a5cb 1abc ca51 a03d
00000290: 673f 093d d82e 9bbd 822d 48bd ea00 9b3d
000002a0: a8e7 803d 47cd 1fbb 4210 e63d ad57 8abd
000002b0: d163 9fbd 0fa3 7c3d 6d13 40bc db68 f0bd
000002c0: 5360 9dbd 29b3 4c3d a666 b53d 5eb1 e3bd
000002d0: 5306 bcbd 8b00 2c3c 62c3 9d3d aaa8 8dbd
000002e0: 8182 90bd aed0 c43d 9237 8abc fd41 cebd
000002f0: ad8f b03d bff3 e03d 9da9 3ebc d193 853d
00000300: c9cc 7b3d 6f50 da3d 2fad 083e 6b72 d5bd
00000310: 58f4 4abd 2b5a 993d 9133 0b3e 4f1a b33d
00000320: fa94 7f3d 0db3 803d f49f 113d d014 a3bd
00000330: ca29 b93c 63a6 e0bd 0950 83bb bf97 76bd
00000340: a0a5 8c3d 00b3 5a3d 981c cb3d 3636 953d
00000350: 5767 f43d 0796 973d a9c5 cdbd 988e f2bd
00000360: c71c b4bc 8a4c cb3c 0e79 5f3d 6709 6b3d
00000370: e4a9 7f3d 1367 bebd 53f6 fd3d d5d3 a3bd
00000380: 2e96 5d3c 68b9 a1bd 8e3f cbbd e551 cdbd
00000390: 7b3f 06be b26b 073c 36d8 b03d af67 d7bd
000003a0: 2da5 43bd e1dd b3bd 3efa b6bd d107 ff3d
000003b0: 8569 933d dd6d a5bd ab68 44bd 4776 ecbc
000003c0: 6d22 e5bd e2ff 10be 0905 773c cbff 10bd
000003d0: 1bdd 9d3d c48b cd3d e89d 87bd b912 cc3d
000003e0: 6d6c 053d 98df 01be c72a 743d cf63 08bd
000003f0: b28d e1bd 3cc4 bf3c 3303 ecbd b1e1 cabc
-0.012766907 0.08533736 0.076665565 0.13215642 -0.031754334 0.011137746 0.1305745 -0.0723656
0.032565482 0.09734938 -0.13043585 0.09614137 -0.06862548 -0.057151023 0.056204613 0.12688409
-0.06727049 0.021874411 -0.12365853 -0.036900837 0.029264012 0.081428386 0.0023132788 -0.05402621
0.06785499 -0.06196689 0.0094891535 0.10040826 0.082078956 -0.11658695 -0.0698426 -0.101319626
0.04489145 -0.08979596 0.0036583748 0.024618922 -0.13037327 0.012121445 -0.005936892 -0.037021477
-0.083204076 -0.04131418 -0.072699 -0.04571537 -0.04097412 0.06909948 0.1318123 -0.040734556
0.04391156 -0.058015864 -0.0019154178 0.020278277 -0.015745785 -0.109274805 0.06888844 -0.051657133
-0.006004109 -0.10813218 0.14193979 -0.058609065 -0.018382724 0.0655062 0.09950448 -0.07064669
-0.091403976 0.06606055 0.023205314 0.055185754 -0.14893454 0.062389288 -0.016368808 0.03654336
0.0880573 0.101725094 -0.005136741 0.07705287 -0.103852324 0.05445728 -0.13566886 -0.06122702
-0.077324614 0.074948534 0.06650211 0.00019683334 0.026710285 0.11079825 0.03213128 -0.061687797
0.10817684 -0.020142028 -0.066619515 0.097579114 0.082195066 -0.0692296 -0.1377045 -0.040508702
-0.06057421 -0.06273728 -0.08234219 -0.118826956 -0.05942434 0.08501477 0.11043333 -0.095623635
-0.018777773 0.055932358 0.07649357 0.05827504 -0.017498428 -0.01343211 0.0060538375 -0.09977566
0.12922813 0.021210106 0.038385846 -0.042767353 -0.06602362 0.023072632 0.010974052 0.100517355
-0.0015068527 -0.07576555 -0.059063952 0.048085254 -0.04122688 -0.027101358 -0.081770085 -0.067598514
-0.054501377 -0.14090733 0.111081325 -0.005932871 -0.1384567 -0.102492444 -0.04456411 -0.05121366
-0.09639289 -0.05219521 -0.11067636 0.109076135 0.06984588 0.00441861 0.10092631 -0.13912243
-0.03940108 0.015928581 0.052831117 -0.08079338 -0.12561166 0.029914103 0.06266832 -0.089452244
-0.039916646 0.032316037 0.062889434 0.05847999 -0.08270614 -0.08640166 0.08047356 0.017050367
-0.10107719 0.037836708 -0.009447967 0.078281 0.03350773 -0.07577294 -0.048871525 0.07568534
0.06294185 -0.002438383 0.1123357 -0.06755004 -0.0778271 0.061678942 -0.0117233815 -0.117387496
-0.07684388 0.049975548 0.08857469 -0.111178145 -0.09180894 0.010498176 0.07703282 -0.06916936
-0.07056142 0.09610115 -0.016872201 -0.1007118 0.08621154 0.10983991 -0.011637119 0.06522334
0.061474595 0.10659873 0.13347314 -0.10422214 -0.04954943 0.07487901 0.1359389 0.08745252
0.062397934 0.06284151 0.035552934 -0.07962954 0.022602934 -0.10969236 -0.0040073437 -0.06020331
0.06867528 0.053393364 0.09917563 0.072857305 0.11933773 0.07401662 -0.10047466 -0.11843604
-0.021986378 0.02481677 0.054558806 0.057382014 0.06241788 -0.092970036 0.12400498 -0.07999388
0.013524575 -0.078966916 -0.099242315 -0.10025386 -0.13110153 0.008265423 0.08634989 -0.10517823
-0.047764946 -0.087825544 -0.08934449 0.12452663 0.07197861 -0.080775954 -0.04795138 -0.028864993
-0.11188207 -0.14160112 0.015076884 -0.035400193 0.07708188 0.10036424 -0.06621915 0.099645086
0.032574106 -0.1268295 0.05961111 -0.03329831 -0.11013354 0.023409002 -0.11524048 -0.024765821

layer_2.bias f4 [64]
00000000: 6455 8ebd 42fc 7c3d 7b42 60bc 1f7f 973c
00000010: c628 00be 2d82 a63d 57d2 1b3e 98ea 26bc
00000020: dc14 003d e583 123e 6347 db3c 9d4b 74bc
00000030: ca79 c53d 1562 4dbc edde f13c cf51 853d
00000040: 4e29 14be 3fc2 11bd 6781 5f3d e7d2 95bc
00000050: b10d 7fbd b17d 31bd 292b 093e 5fda 893d
00000060: ab87 20bd 64ed afbd b988 a03d d83e f139
00000070: 2bf5 4b3c 2073 b6bd c364 fb3b 2200 a63d
00000080: 4076 4bbd 2bab c93d f001 f03d 3bbc eebc
00000090: 86c4 863c 51a2 933d 0b75 41bd 5204 c83d
000000a0: bd9b b33d fa21 a5bd 1ad7 42bd 41e9 893d
000000b0: 340d 663d e774 2d3d 1670 0c3e 24c0 e5bb
000000c0: e514 a7bd 8290 d33d faee 01be db75 01be
000000d0: e5b2 eebd b70b a6bd faf1 b3bc ef1b 043e
000000e0: ad66 b3bc bc60 c43d 5e71 8abc abbd f7bc
000000f0: 49cc a5bd 3020 c5bd 3927 d13c d751 ca3d
-0.06949881 0.06176401 -0.013687725 0.018493233 -0.12515554 0.08130298 0.15216957 -0.010187767
0.031269893 0.14308126 0.026767438 -0.014910606 0.0964237 -0.012535592 0.029525245 0.065097444
-0.14468881 -0.035585638 0.054566767 -0.018289043 -0.062268917 -0.04333276 0.1339537 0.06731104
-0.039191883 -0.085902005 0.07838578 0.00046013924 0.012448589 -0.08908677 0.007671924 0.08105494
-0.04967332 0.09847101 0.117191195 -0.02914249 0.016451132 0.07208694 -0.04723076 0.09766449
0.08769939 -0.08063121 -0.047568418 0.06733943 0.056164935 0.042347815 0.13714632 -0.0070114303
-0.08158282 0.10330297 -0.12688819 -0.12642615 -0.11655215 -0.08107703 -0.02196597 0.12901281
-0.021899546 0.09588763 -0.01689976 -0.030241808 -0.08095605 -0.0962528 0.025531398 0.09878891

layer_out.weight f4 [1, 64]
00000000: 2da1 3fbd 66a5 ea3d f10c 1d3d 2a36 4cbd
00000010: 3389 65bc e3a2 c4bd 035f 0fbe b4c7 cfbc
00000020: 5c86 4ebc 4c66 5dbd 2501 133e 82fe 53bd
00000030: 54e8 c4bc 2770 923c 84fb d63d 000f 06be
00000040: a0ec df3d 1523 af3d 9780 f43d 43b4 c7bd
00000050: 1dd7 b8bc 21d2 753d 5c37 57bd bca0 793d
00000060: 7415 42bd 88bb f9bd 175e ea3c ad01 8d3d
00000070: c500 57bd 9d5c a33c 1941 f3bd a2d3 e2bd
00000080: c68b b0bd c308 57bd 6aa3 0f3e 853b 89bd
00000090: afb1 edbd 1ee2 a8bd f310 f43d 4d15 a0bd
000000a0: 5c30 bd3c 5b4d b0bc aac0 97bd 22ba 67bd
000000b0: 075a e3bd 914c a5bd 9fcb 78bd 8965 f63c
000000c0: cd9f 943d 24df a73d fc89 a4bc 7cf7 443c
000000d0: 7697 cebd 6df2 fbbc 3b80 903c 08c9 943d
000000e0: 37f8 edbc e4cd d43d b845 97bd 2804 d2bc
000000f0: d53d 993d c44d acbb 287b b53c 371b af3d
-0.04678457 0.114573285 0.03834242 -0.049856342 -0.014009762 -0.09601381 -0.14001088 -0.02536378
-0.012605276 -0.054052636 0.14355905 -0.05175639 -0.024036564 0.017875744 0.104971915 -0.1309166
0.109338045 0.08551613 0.11938589 -0.09751179 -0.022563512 0.060014848 -0.05254303 0.060944304
-0.04738374 -0.12193972 0.028609319 0.06885085 -0.05249097 0.019941622 -0.11877651 -0.11075522
-0.0862041 -0.05249859 0.14027181 -0.067008056 -0.11606156 -0.082462534 0.11917295 -0.07816563
0.023094349 -0.021521261 -0.07409795 -0.056573994 -0.11101156 -0.080712445 -0.060741063 0.030077713
0.07257042 0.081968576 -0.020085327 0.0120218955 -0.10087483 -0.030755246 0.01763927 0.07264906
-0.029049022 0.10390833 -0.07386345 -0.025636747 0.07482497 -0.005258294 0.022153452 0.08550113

batchnorm1.weight f4 [64]
00000000: 01d8 813f a520 7b3f cd3d 853f 65b3 803f
00000010: 1944 7b3f e8b8 803f 5bd6 7b3f 40e5 7c3f
00000020: 318f 7e3f 9e94 763f 45c2 803f 2027 7e3f
00000030: 0441 803f b136 7d3f a0d6 843f b9e7 7a3f
00000040: a81b 7c3f aa12 7d3f ccfa 7d3f 4e48 7e3f
00000050: 614b 783f 9133 823f fd5f 813f 885a 7b3f
00000060: e16e 803f 56e0 7d3f 3adf 803f 4803 813f
00000070: be2e 833f 664c 7e3f 5f10 803f 76dc 7b3f
00000080: 9708 7c3f 11e9 803f 7f64 843f 965b 833f
00000090: bd40 833f 711a 7e3f a985 7c3f 39dc 793f
000000a0: 1c57 803f 39af 803f ec37 7d3f 5992 823f
000000b0: a0ad 833f 8b37 833f f8c1 803f 10cb 803f
000000c0: bc69 803f 492c 813f a8d3 7c3f b5c9 7b3f
000000d0: ac21 783f 363d 803f 2640 813f 685a 7f3f
000000e0: 9e10 823f 9a61 803f 8730 833f f8c1 7a3f
000000f0: 4f5e 823f f892 7e3f 3d12 813f 6dbd 7b3f
1.0144044 0.98096687 1.0409485 1.0054747 0.98150784 1.0056429 0.98373955 0.9878731
0.9943724 0.9632052 1.0059286 0.9927845 1.0019841 0.9891158 1.0377998 0.9800983
0.984797 0.98856604 0.9921081 0.9932908 0.9699002 1.0171987 1.0107418 0.98185015
1.0033838 0.99170434 1.0068123 1.0079126 1.024864 0.99335325 1.0004996 0.9838327
0.9845061 1.0071126 1.0343169 1.0262325 1.0254132 0.99259096 0.9864145 0.9760166
1.0026584 1.0053474 0.98913455 1.0200912 1.0287361 1.0251325 1.0059195 1.006197
1.0032268 1.009164 0.9876046 0.98354656 0.9692638 1.001868 1.0097702 0.99747324
1.0161321 1.0029786 1.0249184 0.9795222 1.0185031 0.99443007 1.0083691 0.98335916

batchnorm1.bias f4 [64]
00000000: b603 8ebb 9241 f33c c79c 793c cc1b 103d
00000010: 3eb5 233d e125 f0bb a7e9 35bc e0ef b3bc
00000020: e725 023d 4bae a83c 46e2 30bc 7c3e 1d3c
00000030: 683e 7cbc 85d8 48bc 4538 59bc f079 e43b
00000040: b487 c43c 9910 a3ba d084 e43b 17df 19bd
00000050: 0491 c83b 85ce ac3b b51e 503b a2a9 6a3a
00000060: 9be6 ee3c c6da cd3b 3151 853a 172c 673c
00000070: 8b2e 0e3d 6377 5f3c 53fd 193c b0d8 1dbc
00000080: b63b 823b 23bc c8bc 5d70 93bc 71f9 44bc
00000090: 0080 7abb 90f9 9e3c 13a5 17bb 52c0 263c
000000a0: 21c6 3bbc df01 e33c 8411 093c 21a5 61bc
000000b0: 482a c53a 570f e9ba 004c d63c 3869 e43c
000000c0: 8242 213c 55e2 523c b233 8d3c 73ae 0e3d
000000d0: 0ad6 8e3c c5fb 83bb b2c5 d4bc b379 22bb
000000e0: 2238 393c 93cb 93bc ecc0 d3bc c15b 1e3d
000000f0: c04e 1536 bb2f 17bc eb41 9bbb 0d5a 9dbc
-0.0043339385 0.029694352 0.015235133 0.03518276 0.039967768 -0.0073287343 -0.01110307 -0.021964967
0.031774428 0.020590922 -0.010796135 0.009597417 -0.015395738 -0.0122586535 -0.013258045 0.006972544
0.02399049 -0.001244086 0.0069738403 -0.03756627 0.006120803 0.0052736425 0.0031756584 0.0008951669
0.029162696 0.0062821833 0.0010171292 0.014109633 0.034712356 0.013639304 0.009398776 -0.009634182
0.0039744033 -0.024503773 -0.017997915 -0.012022362 -0.0038223267 0.01940611 -0.0023139163 0.010177689
-0.011460812 0.027710853 0.008365992 -0.01377228 0.0015042508 -0.0017781061 0.026159286 0.027882203
0.009842517 0.012871345 0.017236564 0.034834336 0.017436046 -0.004027816 -0.025973175 -0.0024791777
0.011304887 -0.018041408 -0.025848828 0.038661722 2.2248569e-06 -0.009227688 -0.0047380826 -0.019207979

batchnorm1.running_mean f4 [64]
00000000: 710a f73e f1d2 a83e de87 e73e 4827 9f3e
00000010: a452 833e a3fc d13e eed9 843e 9d0d c03e
00000020: 4670 be3c 70fa d63e db4a e83c 1706 113f
00000030: b84c 5b3e 9b25 353e 7245 9a3e 765a 793e
00000040: 9a4e b73e 8e47 f23e 2a69 7b3e a330 d73e
00000050: 6ee9 6a3e 9826 d03e ebf0 a93e 07f9 183e
00000060: 832c c43e 90f1 b03d aee9 133e 7064 b83e
00000070: 8bba f43d c977 323d 9ae4 5e3e ab9a 9e3e
00000080: 0ee8 e23d 3182 f83d 491f be3e 0e10 b13e
00000090: 633f a23d 7615 113e 9ff5 153e 4d64 c93e
000000a0: cb12 d63e 286a db3e 45a6 d73e 43d1 863d
000000b0: f69a c03e 44d0 813d 06e9 3d3d 2aec fc3e
000000c0: 619f a73e a673 f83e 36e9 1c3e 64ff fc3e
000000d0: f1f0 0a3e 8c47 833e 55fd 9f3e 87d9 bb3e
000000e0: 18b3 213e 95bc 5d3e a078 853e 1a84 ca3e
000000f0: a57f 9b3d f0ba cd3e c830 1f3e dbcb 5a3e
0.48250154 0.32973436 0.45220846 0.31084657 0.25648987 0.4101306 0.25947517 0.37510386
0.023246896 0.41987944 0.028356006 0.5664992 0.21415985 0.17690127 0.30131108 0.24350914
0.35802156 0.47320217 0.24551836 0.42029294 0.22940609 0.40654445 0.33191618 0.14938746
0.3831521 0.086398244 0.1444461 0.36014128 0.11949643 0.043571267 0.21766892 0.30977377
0.11079417 0.12134207 0.37133244 0.3458256 0.07922246 0.14168343 0.14644478 0.39334336
0.41811213 0.42854428 0.4211904 0.06582882 0.37618226 0.06338552 0.046364807 0.4939893
0.32738784 0.48525733 0.15323338 0.49413598 0.13568474 0.25640523 0.31247965 0.36689398
0.15790975 0.2165397 0.26068592 0.3955391 0.07592706 0.40181684 0.15545952 0.21366827

batchnorm1.running_var f4 [64]
00000000: a375 a43e 8b44 063e 44e1 203e bace 053e
00000010: 80dc 0f3e 7173 9a3e 8e71 e43d c7e8 443e
00000020: 1b5d a73b 246a 633e 7d0e 6f3b 4600 b73e
00000030: b488 d63d b852 9b3d 5180 203e 8864 f93d
00000040: 90a1 233e 9286 933e f6c2 c43d 31b4 033e
00000050: 24ea b83d 879a 5b3e 9e58 663e 8d38 323d
00000060: 1cb3 4f3e 1638 cc3c 0274 603d e48c 333e
00000070: d59f 4e3d 4e54 ae3b 5676 ac3d c5aa 2b3e
00000080: b23a 3c3d 17bc 303d b410 173e 9b04 443e
00000090: 11c0 d63c 7096 603d c5d0 b93d d17c 163e
000000a0: fa12 713e 027e 443e 7c44 103e c018 fa3c
000000b0: 4248 803e aecf 883c b08c 593c fb38 933e
000000c0: 06b8 283e a8e3 903e ef82 503d d03c 7d3e
000000d0: 14a7 8c3d cde1 143e a6b8 293e 6775 5e3e
000000e0: 34ec 973d d561 db3d 0e9a 103e 5fa6 233e
000000f0: 421e fa3c 0772 923e 1223 703d 08a3 583d
0.32121 0.13112085 0.15710932 0.13067141 0.14048958 0.301662 0.11154471 0.19229423
0.0051075346 0.22208458 0.0036477142 0.35742396 0.10475293 0.07584137 0.15673949 0.12177378
0.159796 0.28813607 0.09607498 0.12861706 0.09029034 0.21445666 0.22494742 0.043510962
0.20283169 0.024929088 0.054798134 0.17534214 0.050445396 0.0053201085 0.08421008 0.16764362
0.045954414 0.043148126 0.14752465 0.19142382 0.026214631 0.05483097 0.09073023 0.14696051
0.23542395 0.19188693 0.14088625 0.03052938 0.25055128 0.016700592 0.013278171 0.2875441
0.1647645 0.28298688 0.050906118 0.2473023 0.06867805 0.14539261 0.16574344 0.21724473
0.07418099 0.10712019 0.14121267 0.15981434 0.030532006 0.2860262 0.058627196 0.052889854

batchnorm2.weight f4 [64]
00000000: 5bbf 7e3f cbb3 823f 34a3 813f 646e 7b3f
00000010: 54b4 7a3f cd4a 823f feba 843f 36d6 7c3f
00000020: 5cfd 7c3f 134f 843f d7e6 853f 473f 853f
00000030: 6d5e 823f ccec 7b3f 1c3c 823f 1a37 813f
00000040: ceef 823f a71b 803f f317 873f 8178 823f
00000050: d150 7c3f 1a83 863f b30f 833f 5990 863f
00000060: 516f 833f 941c 833f 0783 843f 255b 863f
00000070: 025b 823f 312d 793f 1bf0 813f ab4d 803f
00000080: 05c0 803f 41e4 843f 2007 833f d3e3 7e3f
00000090: 289e 833f 131e 823f 1485 813f 90a5 843f
000000a0: ffb1 803f 0dd0 7a3f 1b44 813f 9dfa 863f
000000b0: 5fbd 833f 2dc6 843f c839 843f e1dc 823f
000000c0: e906 7f3f ffc4 7c3f 201a 813f d834 7e3f
000000d0: d66c 823f 00bb 843f 779e 7f3f 484c 863f
000000e0: 8fd9 833f f379 7d3f aeaf 7e3f 348c 833f
000000f0: 3e8c 793f 8d1d 7b3f cc06 7a3f b5ed 833f
0.99510735 1.0211118 1.0127931 0.9821532 0.9793141 1.0179077 1.0369565 0.9876436
0.98824096 1.0336632 1.0461072 1.0409936 1.0185066 0.984082 1.0174594 1.0094941
1.0229433 1.0008439 1.0554184 1.0193025 0.98560816 1.0508759 1.0239166 1.0512801
1.0268346 1.0243096 1.0352486 1.0496565 1.0184023 0.9733458 1.0151399 1.0023702
1.00586 1.0382158 1.0236549 0.9956638 1.028264 1.0165428 1.0118737 1.0363026
1.005432 0.9797371 1.0098909 1.0545231 1.0292166 1.0372978 1.0330133 1.0223657
0.9961992 0.9873809 1.0086098 0.99299383 1.0189464 1.0369568 0.99851173 1.0492029
1.0300769 0.99014205 0.99486816 1.0277162 0.9747962 0.98091966 0.9766662 1.0306917

batchnorm2.bias f4 [64]
00000000: 8c5a da3c 2dff e3bc 1bd6 cfbc 272d db3c
00000010: 5395 c23c 32fa ed3c 128f e63c ed72 ce3c
00000020: bbd3 cf3c bfe7 f53c a2c8 e7bc 2d42 ec3c
00000030: 58c1 c53c bdc4 b8bc cab8 c6bc 2aa9 e03c
00000040: 393a cbbc 636f e7bc ddfa e8bc 333b 053d
00000050: 79d0 bf3c 1b69 e5bc 9128 ee3c 4981 e7bc
00000060: 5ad1 e83c 9675 f23c 6468 11bd 6be7 e6bc
00000070: 6f3c dd3c f6f2 debc e16d bb3c 1558 bd3c
00000080: e492 e03c 0cac e83c 683d ecbc 689b 043d
00000090: bd5c 053d d033 f33c fd44 f5bc a39c f13c
000000a0: 0f87 fabb a0c1 de3c 3a6d f93c d70a eb3c
000000b0: d08f c13c 5740 e73c 488a ca3c b173 dabc
000000c0: 1141 bdbc cc8d d5bc ca02 613c bbed 7abc
000000d0: f569 dd3c ec15 053d bf8d babb bdb3 fbbc
000000e0: 3f07 cd3c 991a ddbc 0e37 c63c 48b3 f93c
000000f0: 2f5f d5bc 7c21 84bb 9b52 c1bc c7c5 c7bc
0.026654504 -0.027831638 -0.025370648 0.026754929 0.023752844 0.029049966 0.028144393 0.025201285
0.025369516 0.030017732 -0.028293911 0.028840149 0.024140045 -0.02255475 -0.024258036 0.027424414
-0.024808036 -0.028251356 -0.028439933 0.03252716 0.023414837 -0.02800422 0.029072078 -0.02825989
0.02842014 0.029597085 -0.035499945 -0.02818652 0.027006356 -0.027215462 0.022879543 0.02311329
0.027413793 0.02840235 -0.028837875 0.03237477 0.032559145 0.029687792 -0.029940123 0.029493636
-0.007645495 0.027191937 0.030447591 0.028691692 0.023628145 0.028228922 0.02472414 -0.026666494
-0.023102315 -0.02606859 0.013733575 -0.015315468 0.027028063 0.03249161 -0.005693167 -0.030725354
0.02502787 -0.026990222 0.024196174 0.030480996 -0.026046364 -0.004032312 -0.02359896 -0.0243863

batchnorm2.running_mean f4 [64]
00000000: 5cb2 933e 8aa0 df3e 3e46 823e 0698 a93e
00000010: 7cd8 433e 4724 d13e 3d70 b53e dabe b33e
00000020: 0e5f 673e 01fa 9a3e 2a89 ac3e 98b1 6f3e
00000030: e090 8a3e 5c8a ad3e 0157 983e dbd0 c53e
00000040: 5131 273e b9e7 2a3e a7dd 7d3e 8d96 093e
00000050: 4b43 4f3e 0d2f 673e 455d 693e df89 b23e
00000060: 6162 323e 9132 983e 2f70 9b3e eba9 a13e
00000070: a93b 9d3e b0b9 8d3e 624e b23e 9621 923e
00000080: 66d0 433e 9eb5 853e 6caa bd3e c1b6 533e
00000090: 4076 7a3e 1def 893e c368 903e 1544 c03e
000000a0: 555f 933e 1d99 5c3e b49a 623e d15a 973e
000000b0: a50f 843e 66ef 723e ec0e b13e 7390 2e3e
000000c0: f858 213e 9458 b93e c4dc 703e 86b7 dc3d
000000d0: 8f9e 233e 6f6c aa3e 7d1d a63e 3394 ad3e
000000e0: 360f 453e 21d3 9a3e 68a2 473e 4e28 a83e
000000f0: 299a 683e 328a 263e d815 893e dd36 863e
0.28847015 0.4367717 0.25444216 0.33123797 0.19125551 0.4084799 0.35437194 0.35106546
0.22594854 0.30268863 0.33698398 0.2340759 0.27063656 0.33894622 0.2975388 0.38635907
0.16327406 0.16689958 0.24791585 0.13436337 0.20240514 0.22576542 0.22789486 0.34870812
0.17420341 0.2972608 0.30359027 0.3157495 0.3070958 0.2768073 0.34825426 0.2854125
0.19122466 0.26115125 0.37044084 0.20675184 0.24459171 0.2694024 0.28204927 0.37551942
0.2878367 0.21542783 0.22129327 0.29561475 0.25793186 0.23724136 0.34581697 0.1704729
0.15756595 0.36200392 0.23521715 0.10777192 0.15978454 0.33285853 0.32444373 0.3390213
0.19244084 0.30239204 0.19495547 0.3284325 0.22715057 0.16263655 0.26774478 0.26213732

batchnorm2.running_var f4 [64]
00000000: f905 433e 4d12 973e 2cb7 d93d 7989 7f3e
00000010: 1d35 f23d c34d 843e a6bd 113e ca03 933e
00000020: b005 e23d 80be 053e 2aa1 403e 3c7e b93d
00000030: c0f8 c53d c3ff 533e dfa9 483e 8f47 803e
00000040: 2ce3 bf3d c756 a03d 09f9 2d3e 841f 2a3d
00000050: 7dc0 9d3d ca29 e83d 6682 b73d 1445 463e
00000060: f3bb 873d 9521 3b3e 4c75 263e d2e9 2e3e
00000070: 5c7b 173e b6e6 463e 0ae5 543e f843 dc3d
00000080: f4ee d33d d991 da3d 2fad 8d3e 51f1 973d
00000090: c43b ee3d b9a8 f73d 2d61 1a3e feac 2e3e
000000a0: 9389 283e 71b4 c73d c42d d63d 114b 4d3e
000000b0: d491 a83d 3100 e53d 8cfd 0e3e 3eed 8a3d
000000c0: 54f4 8d3d b48e 5c3e 3745 1f3e 9839 513d
000000d0: f689 913d aa95 6e3e 6b2c 813e 7df3 143e
000000e0: 3089 b13d 44f9 3d3e f818 9e3d 938e 0c3e
000000f0: 4f0a 553e a4b4 9e3d 0115 353e 730c e33d
0.19045247 0.2950615 0.106306404 0.24954785 0.11826537 0.25840577 0.14232501 0.28713828
0.11036241 0.13060951 0.18811479 0.090572804 0.09666586 0.20703034 0.1959605 0.25054595
0.093695015 0.078290515 0.1698953 0.041533962 0.0770273 0.11336096 0.089604184 0.19362289
0.06627645 0.1827453 0.16255683 0.17081383 0.14793152 0.19423947 0.20790496 0.107551515
0.10348311 0.106723495 0.2767119 0.07419074 0.11632493 0.12092728 0.15076132 0.17058179
0.1645873 0.09751213 0.10457948 0.20048167 0.082309395 0.11181677 0.13963908 0.067835316
0.069313675 0.21538812 0.15553747 0.051080316 0.07106392 0.2329928 0.252292 0.14546008
0.086687446 0.18552119 0.07719606 0.13726263 0.20804714 0.07749298 0.17683794 0.11086359
