model.pt (torch, 23989 bytes, 13 tensors)

layer_1.weight f4 [64, 1]
00000000: 635c 3dbe a653 303f 850c f43e 612d 2bbf
00000010: 6f80 1c3e 40fd 6c3d 45a4 36bf 249b fbbe
00000020: 8cdc 50bf 634d bc3e fef6 233f 3acf 573f
00000030: 1821 e23e 8a82 6f3f 5164 363f 0831 073e
00000040: 1cd8 6b3d 6143 263f 8827 4fbe ffc0 61bf
00000050: b2a9 1dbf b16f 4c3f 3a50 16bf a91e 49be
00000060: b949 583f 69e4 13bf 732b babe 209f 0abd
00000070: 0498 d5be 0cc3 a63e 7d8f 9cbe a431 5d3f
00000080: 71d2 ffbe 3ec3 893c 5a0d 9a3e 52b5 203f
00000090: d177 c03e 98c4 53be fd1c 0a3f 4156 173f
000000a0: 39cd 373f 7148 10be 37d8 20be 1242 54bf
000000b0: 88ee 3dbe c25a 2a3f 598b 91be 28be 2c3f
000000c0: 18d8 70be 09d9 513f 7e4a 1fbd fa3b 4e3f
000000d0: df43 c83e 6055 763d f0cf 183e 2b57 d23e
000000e0: 4ccd 913e 87b7 14bf 106b cc3e 0e8d 17bf
000000f0: 6b81 1abf a29d 2bbf c6fa 0bbf 90f8 7c3e
-0.18492274 0.6887764 0.47665802 -0.6686612 0.15283369 0.057858706 -0.71344405 -0.491418
-0.8158653 0.3677779 0.64048755 0.8430058 0.44165874 0.9355856 0.7124682 0.13202298
0.057579145 0.6494656 -0.20229924 -0.88185114 -0.6158706 0.7985793 -0.58716166 -0.19640602
0.8448749 -0.577704 -0.36361274 -0.03384316 -0.4171754 0.32570684 -0.30578223 0.8640387
-0.49965242 0.016816732 0.3008831 0.6277667 0.37591413 -0.20680463 0.5395048 0.5911599
0.7179752 -0.14090134 -0.1570748 -0.82913315 -0.18548024 0.66544735 -0.28426626 0.67477655
-0.23519933 0.81971794 -0.0388894 0.80560267 0.39114282 0.060140014 0.14923072 0.4108213
0.28476942 -0.5809254 0.39925432 -0.5919961 -0.60353726 -0.67037404 -0.54679525 0.24704194

layer_1.bias f4 [64]
00000000: b8dc 223e 3a0f 453f 937a 66be a462 0bbe
00000010: 0c99 4c3d c86a 1e3f dfb7 69bf 88f1 7a3f
00000020: 50c6 b1be 1e91 883e 3378 efbe fadc 783e
00000030: 20dc 4f3f c859 183f f959 1fbf 0061 a5be
00000040: b460 1a3f 8424 1fbf 60c1 9bbe e1d7 5dbf
00000050: 8fc9 633f 6643 0c3e 1343 403e 6c23 f63e
00000060: 9c3e 5fbf 7674 0a3f 97ca 40be 6016 f3be
00000070: 9974 fa3e ccd9 083f 76e0 d4bd ad4b 9a3e
00000080: 6174 f0be 0dc3 6d3f 49ac 5d3f e153 413e
00000090: b957 0fbf 6cfd d5be 3a7e 2e3f 121c 0ebf
000000a0: cd6d c2be b520 9cbd f390 d73e c286 b1bd
000000b0: aadc 4cbf ecc0 4f3f b908 0ebe ee1a 63bf
000000c0: 2093 10bf 16a6 50bf 11be 623f 722c 173f
000000d0: 5a4b 4bbf 6a02 0fbf a24f 50bf 1b14 8a3e
000000e0: eed2 48bf 6015 683f 7ae5 52bf f934 253e
000000f0: 4bd8 37be f3c2 123f 622c 1d3f 816c 143f
0.1590451 0.7697636 -0.22507696 -0.13611847 0.049950644 0.61881685 -0.9129619 0.980248
-0.34721613 0.26673216 -0.46771392 0.24303046 0.8119526 0.59511995 -0.6224666 -0.32300568
0.6030381 -0.62165093 -0.3042097 -0.8665753 0.8897943 0.13697585 0.18775587 0.480739
-0.8720491 0.54083955 -0.18827282 -0.47478008 0.48917082 0.5345733 -0.10394375 0.3013586
-0.4696379 0.9287575 0.8659101 0.18879654 -0.5599323 -0.41794908 0.68161356 -0.5551158
-0.37974396 -0.07623426 0.42102775 -0.08668281 -0.80024207 0.8115375 -0.13870515 -0.88712966
-0.56474495 -0.8150343 0.8857127 0.59052193 -0.7941185 -0.5586306 -0.8137151 0.26968464
-0.78446853 0.90657616 -0.82381403 0.16133489 -0.17953603 0.5732872 0.6139585 0.57978064

layer_2.weight f4 [64, 64]
00000000: cc1b 48bd 6ca9 313a b59c 3abd 6e5b 78bd
00000010: 344c 02be 2559 ed3d 4198 3b3c 0cac 30bc
00000020: 71ce 04bd 9a06 81bc 82d2 523c a94b 91bb
00000030: d81f 77bd 9d3b b83d f754 36bd e9fe 8f3d
00000040: 84f7 f5bd fc4c a13d 2d55 893b ac4e 0b3d
00000050: 2c86 06bd bf08 a23d ad1e 0ebd 343c 4a3d
00000060: d6b9 ecbb a636 e4bd 72e0 d03d f830 a63c
00000070: 83ec d93d 9fda c2bc 7d67 ac3d 128e 043c
00000080: c4e9 903d 830b edba b6d9 08be 57c3 5ebd
00000090: 7d20 efbd 6794 ea3d f05c 843b 4aa7 cdbd
000000a0: a7ac 823d b3a1 a2bd e50b a63b d2b9 083c
000000b0: 1d12 12bb da83 f4bd 32d2 04be 07b5 b5bc
000000c0: 9b74 37bd 40e2 1dbd 118f 863c 49e6 e3bc
000000d0: 8b57 91bd cae4 683d c398 88bd 1822 0a3d
000000e0: 115b 6dbd 0165 843d 6001 c83d 6752 ecbd
000000f0: 9edd 8bbd d989 b63c bb37 493d db52 b33a
00000100: 935d dfbc 8272 d63a 3be3 dd3d 006b 2fbd
00000110: a249 4ebd 8d99 61bd 6c95 03be be1f c9bd
00000120: 7643 febd 8253 03bc ff99 903d d384 523d
00000130: f1c1 c23d 5890 e2bd 680c 533c 495b 49bd
00000140: 8d50 adbc e21b efbb bf3c ea3d d16d 62bd
00000150: 512b ffbd b3db aa3d 6216 aebd 7c2f 32bd
00000160: 1219 d7bd 7151 c03d b2da 373c da51 a93d
00000170: e9f7 543d 2090 e33c db5d 01be 79dc d1bd
00000180: 8795 91ba 1363 d43d fd3e d7bd 4f2f 99bd
00000190: 12d8 873d 7fa9 21bd f60e a6bd 43b6 7f3c
000001a0: 2b06 b13d 70d5 343b 7322 9e3c cd41 153c
000001b0: 3cb0 3f3c 6c56 1ebd 436a db3d da77 8ebd
000001c0: 7445 c2bd 120f ab3d c9db e23d 6db3 dfbd
000001d0: de9d dcbd 6d3b 553d 85f8 323d 2c2c 28bc
000001e0: 0be5 d3bd 8bdd c33d 0486 ee3d ea9b aebc
000001f0: 8f6d f03c 9b3a e73d d04d 4b3c e55b 28bd
00000200: 90d6 5a3d f0ce 73bc 68a1 843c 34d9 1bbd
00000210: b0da 9dbd 285b 27bd ba7f cd3d 3602 c6bd
00000220: 3053 8ebc 30c7 7ebd 5621 833d a00a 9ebc
00000230: 104c 7fbd f436 9b3d 9a32 cfbd 4adb d23d
00000240: 28e0 8cbc 9eba 9e3d bcfa 2b3d d2e9 edbd
00000250: 9882 aabd 24bc afbd 6490 89bd b0e5 16bd
00000260: b89a 1c3d 4c09 dc3d 306b 51bd 1862 923d
00000270: 82f3 a93d 8ec7 963d 085c 07bd 068f e3bd
00000280: 86ee afbd 2453 953d 6053 643d 94d8 47bd
00000290: 38b1 583d fc0f 64bd dadc afbd 9861 5d3d
000002a0: c0d0 0c3b 40eb 44bb 6050 34bc 80c0 2c3d
000002b0: 8a3a cbbd 4489 17bd ec25 c1bd 50be 4a3c
000002c0: f044 373c 18cc 70bd 6852 423d 406e 3fbc
000002d0: 8a93 8dbd c495 2b3d 80dc 3cbc 2013 c2bd
000002e0: 74c4 7ebd e836 2a3d 6cfe d1bd 5a9d d3bd
000002f0: 2645 c6bd 144e 26bd da47 f3bd 7ac5 d2bd
00000300: 5888 b03d 6e1d b23d a461 b73d 0046 9a3b
00000310: a6ae f93d ca13 893d 42ee a6bd d802 cf3c
00000320: a013 a73c 9061 f93d 6059 91bd a8b8 f63c
00000330: 8c01 27bd b017 6abd b079 623d 0832 543d
00000340: 1ab5 9abd 00e5 3cbc cca2 72bd bc69 8abd
00000350: c02f b0bc ce25 83bd 7032 eabc 6a8e d8bd
00000360: b46a c7bd 1a4b c6bd 3ae0 cd3d 4074 a4bb
00000370: 16f9 b9bd 6038 073c 80a3 eaba 42ab a8bd
00000380: 66b6 c4bd 60d6 8f3b d049 813d 90a2 293c
00000390: 3086 2bbc ee54 ff3d aae9 a4bd c644 e5bd
000003a0: 4a58 e8bd 7016 883c 8034 5c3d 005f 9cbb
000003b0: dc53 19bd 601a eabd e488 7d3d 7c07 3abd
000003c0: 5cb5 94bd 8e86 bb3d c239 9cbd ce27 acbd
000003d0: 6826 c73c f09c 7d3d 00b6 3e3d 78a0 05bd
000003e0: 709e 66bd f4ec 153d 2e32 e5bd 20ed 87bd
000003f0: 4c3b 563d 0ed8 ca3d 0289 aabd ac1d 173d
-0.048854634 0.000677726 -0.045559604 -0.06063407 -0.12724382 0.115892686 0.011449874 -0.010783207
-0.03242344 -0.015750218 0.012867572 -0.004434068 -0.060333103 0.08995745 -0.044514623 0.07031042
-0.120101005 0.07876012 0.004191062 0.034010574 -0.0328428 0.079118244 -0.034697223 0.04937382
-0.007224302 -0.11143236 0.101990595 0.020287022 0.10640814 -0.023785887 0.08418176 0.008090513
0.07075837 -0.0018085096 -0.133643 -0.05438551 -0.116761185 0.11454087 0.0040393993 -0.100416735
0.06380587 -0.07940998 0.005067336 0.008345084 -0.0022288628 -0.11939211 -0.12970808 -0.022181047
-0.044788938 -0.038545847 0.016425641 -0.02781977 -0.070967756 0.056858815 -0.06669762 0.03372392
-0.057948176 0.064645775 0.09765887 -0.115391545 -0.068293795 0.022282528 0.049125414 0.0013681309
-0.0272663 0.001636103 0.108343564 -0.042826653 -0.05036319 -0.055078078 -0.12849969 -0.098205075
-0.12415211 -0.008015515 0.070606224 0.051396202 0.09509648 -0.11062688 0.012881376 -0.049159322
-0.021156574 -0.007297025 0.11437368 -0.05528051 -0.12459434 0.083426856 -0.08500363 -0.043502316
-0.10502829 0.09390534 0.011221575 0.08267565 0.051994238 0.027778685 -0.1263346 -0.1024713
-0.0011107185 0.103704594 -0.10510061 -0.074797265 0.06633009 -0.039468285 -0.08108322 0.015607419
0.086437546 0.002759304 0.019303536 0.009109926 0.011699732 -0.038656637 0.10713627 -0.069564536
-0.094859034 0.08352484 0.11077077 -0.109228946 -0.10772298 0.052058626 0.043694038 -0.010264438
-0.10346421 0.0956374 0.11646655 -0.02131458 0.029349117 0.11290475 0.012408689 -0.041103262
0.05342728 -0.014880881 0.016190246 -0.038048938 -0.07707727 -0.040858418 0.100341275 -0.096683905
-0.017373651 -0.06220168 0.06402843 -0.019292176 -0.0623284 0.07578841 -0.10117073 0.10295732
-0.01719673 0.07750438 0.041987166 -0.11616863 -0.0832569 -0.08580807 -0.067169935 -0.03684014
0.03823349 0.10743961 -0.051127613 0.07147616 0.082983986 0.07362281 -0.033046752 -0.11111264
-0.085904166 0.072912484 0.055743575 -0.04879053 0.052903384 -0.055679306 -0.08587046 0.05404815
0.002148673 -0.0030047446 -0.011005491 0.04217577 -0.09923275 -0.03699614 -0.09431061 0.012374476
0.01118587 -0.05878839 0.04744187 -0.0116840005 -0.069129065 0.041890875 -0.011527181 -0.09476304
-0.06219907 0.04155627 -0.10253605 -0.10332747 -0.09681158 -0.040601805 -0.11878939 -0.10291572
0.086197555 0.086970195 0.0895417 0.0047080517 0.12191515 0.066932276 -0.08150913 0.02526991
0.0203951 0.12176812 -0.07097125 0.030117348 -0.04077296 -0.057151496 0.05529183 0.051805526
-0.07554074 -0.011529207 -0.059237286 -0.067584485 -0.021507144 -0.06403695 -0.028588504 -0.10574038
-0.09737149 -0.09682293 0.100525334 -0.005018741 -0.090807125 0.008253187 -0.001790151 -0.0823579
-0.09605102 0.004389569 0.06312907 0.010353699 -0.0104690045 0.12467371 -0.080523804 -0.11194758
-0.11344965 0.016612262 0.053761005 -0.004772067 -0.03743349 -0.11430812 0.061898127 -0.045417294
-0.07261154 0.09156524 -0.07628204 -0.0840603 0.024310306 0.061917245 0.046560287 -0.032623738
-0.05630344 0.03660293 -0.11191212 -0.06637025 0.052302644 0.099044904 -0.083269134 0.03689353

layer_2.bias f4 [64]
00000000: 05f6 963d ea45 edbd 08dc 09bd 542b f63d
00000010: e08b 94bd 71db cb3d e042 d83c d6fa de3d
00000020: 4deb dfbd 912c f5bd b9f2 703d 7617 6ebd
00000030: ba7d 9dbc b501 ca3d c0bc 04bd 9ea1 8b3d
00000040: ee63 f83d a88c e7bd 0630 b0bd 9869 a53d
00000050: b9ca cc3d 1d41 efbc 3050 8f3d 32b0 ccbd
00000060: 5023 253c 98f2 99bd f723 883d a5cf eabd
00000070: 403c 40bd d4f3 fabd 96ed 4c3d ad8b 97bd
00000080: 07c3 d83d 640b 39bd 272c d13d 4cfc 9abd
00000090: 10c7 e8bd 59e9 e03d 9c90 dabd 1280 703d
000000a0: 7b99 9a3c 8c1b f83d daa9 9b3c ab65 d8bb
000000b0: 607c 1bbc a478 5dbd 8019 4e3d cae2 dbbd
000000c0: 5361 e0bd b384 03be 23cb e63d d8ad cabd
000000d0: 8079 18bd 0a6a a5bd a0e0 9fbc ba0f d33d
000000e0: 34ed ce3c b22b a03c 0cfa 123d bb03 40bd
000000f0: b456 99bd 13fc f33c 9f04 88bd 4f93 d93d
0.07371143 -0.11585601 -0.033657104 0.12019983 -0.072532415 0.099539645 0.026399076 0.10887687
-0.10933552 -0.11971391 0.05882523 -0.058127843 -0.01922499 0.09863607 -0.03240657 0.068179354
0.12128435 -0.11306125 -0.0860291 0.08076781 0.09999604 -0.029205853 0.069977164 -0.09994544
0.01007922 -0.07516974 0.06647485 -0.11465386 -0.04693246 -0.12253538 0.050031267 -0.07399688
0.105840735 -0.04517688 0.102134995 -0.07567653 -0.11366093 0.109820075 -0.10672113 0.058715887
0.018872013 0.12114629 0.01900189 -0.0066039166 -0.0094901025 -0.05407013 0.050317287 -0.10736616
-0.10956063 -0.1284359 0.11269214 -0.09896439 -0.037225246 -0.08076866 -0.01951629 0.10305734
0.025259592 0.019552086 0.035882995 -0.046878558 -0.074872404 0.029783284 -0.066415064 0.106238

layer_out.weight f4 [1, 64]
00000000: d4f3 ecb8 3643 26bc 7f76 15bd a53e b0bc
00000010: 50ae 35bc f36b 233c d65b 793d d913 7abc
00000020: 4ab7 f7bd cdc6 a43d c3a1 c0bc 5957 8a3d
00000030: aa61 da3d 4e6e cfbd 2708 d53b 718a c33c
00000040: e221 b63b 0d5b db39 46e2 173d 3720 8a3c
00000050: a300 dfbc 2101 91bc f8e1 a13c 4a3d 14b8
00000060: 17b1 a43b 8cbe 1037 7844 7ebd 97af b8bd
00000070: a1de f23c 3b3d 28bc d1e7 263d a0fb 83bd
00000080: b9ee 3fbd bdaa db3b 56b0 5bbc 73c6 f03c
00000090: efb3 883c 5f69 d8bc 2863 353a 6db9 17bd
000000a0: 3efc f9bd cf52 86bd 6c70 cd3d b58b 84bb
000000b0: 803b a73c d6e8 c73b 1045 c4bc b87d 10ba
000000c0: 2b30 293d 44e8 39bd 7a1e 5abc 54aa 763a
000000d0: f3d0 8e3d b08b aabd 8f39 2fbd 3dc5 6e3d
000000e0: bbf1 93bd 03a6 733d 3cd0 0d3d 3a02 483d
000000f0: c855 1fbc 8a2e 07bc 44dd 23bb 188e 87bd
-0.000112987735 -0.01014786 -0.03648996 -0.021514246 -0.011088923 0.009974468 0.060878597 -0.015263521
-0.120955065 0.08045731 -0.023514634 0.067549415 0.10663159 -0.10128461 0.006501216 0.023869725
0.0055582384 0.00041838773 0.037081026 0.016861064 -0.027221983 -0.017700734 0.01976107 -3.534303e-05
0.0050259936 8.627434e-06 -0.062077016 -0.09017866 0.029647173 -0.010268505 0.04074842 -0.06444478
-0.046858523 0.006703703 -0.013408741 0.029391503 0.016687362 -0.026417432 0.00069193775 -0.03704207
-0.122063145 -0.06558763 0.100312084 -0.0040449747 0.020414114 0.0061007543 -0.023958713 -0.00055118976
0.041305702 -0.04538752 -0.01331293 0.0009409536 0.06973448 -0.083274245 -0.0427795 0.05829357
-0.07223841 0.059484493 0.034622416 0.04883025 -0.009725042 -0.008250842 -0.002500371 -0.06618899

batchnorm1.weight f4 [64]
00000000: 039c 7f3f d3d6 7d3f c450 813f 341d 7b3f
00000010: f5f4 7d3f 0e4a 7b3f fb09 813f ae52 7d3f
00000020: 01bf 7d3f a162 783f 1ac5 833f 702a 7e3f
00000030: d4f1 7b3f e10b 7f3f 65d4 833f 0000 803f
00000040: a4c5 7c3f 61f0 7f3f 0000 803f 1274 813f
00000050: 01ff 803f b40b 703f 6197 7a3f 2945 7e3f
00000060: c52d 813f 472d 7d3f 2649 7a3f 0000 803f
00000070: 0b38 7d3f 8969 7d3f 4be0 7a3f 0884 7c3f
00000080: 76ea 813f 480d 7e3f 4de2 7d3f 17e2 773f
00000090: d706 763f 0000 803f cf00 773f 3670 823f
000000a0: 001a 803f cf43 743f 7032 7f3f 32ca 7e3f
000000b0: 0000 803f f2a6 7e3f 384c 833f 5353 7d3f
000000c0: 0000 803f f745 833f 0b84 7e3f 1146 7e3f
000000d0: 0a38 7e3f 0000 803f 0000 803f 5fe2 783f
000000e0: 0000 803f ec7b 7e3f 0000 803f 8819 7d3f
000000f0: 2b5f 7f3f b042 7b3f 5f9d 7e3f 2f56 7c3f
0.9984743 0.9915592 1.0102773 0.98091435 0.992019 0.98159873 1.0081171 0.98954284
0.99119574 0.97025496 1.0294526 0.99283504 0.98415875 0.996275 1.0299193 1.0
0.98739076 0.99976164 1.0 1.0113547 1.0077821 0.9376786 0.97887236 0.9932428
1.0092093 0.9889721 0.97767866 1.0 0.9891364 0.9898916 0.97998494 0.98638964
1.0149677 0.99239016 0.9917343 0.9682936 0.96104187 1.0 0.9648561 1.0190494
1.0007935 0.9541597 0.99686337 0.99527276 1.0 0.9947349 1.0257635 0.9895527
1.0 1.0255727 0.9942023 0.9932566 0.9930426 1.0 1.0 0.97220415
1.0 0.9940784 1.0 0.9886708 0.9975459 0.9814863 0.9945888 0.98569006

batchnorm1.bias f4 [64]
00000000: daff c6bb 1cd6 5bbc e281 0fbb 3794 26bc
00000010: e2bd 5ebb f32c 91bc 95cb babb 6c29 26bc
00000020: 0f23 4d3b 2a5d 9fbc 30ff 89bb 42c4 88bc
00000030: 2717 58bc 0221 54bc 6f61 3ebb 8a72 bf3a
00000040: 0773 44bc 80c2 c73b 84e2 053b cd1e 29bc
00000050: 1cd4 0abc 9fc2 cbbc 8d54 6fbc 9fcb 2bbc
00000060: e525 15bb 2999 eabb c871 afba 9cd0 f1ba
00000070: 5a21 35bc 9394 3bbc f094 8fbb ac24 c8bb
00000080: ea7e 1abc a888 e1bb c0a6 a9bb 3a51 f3ba
00000090: 7de1 473b cbee 0fbb 6e52 88bc 1db6 873b
000000a0: 85c5 80bb 5a3b 173b 8313 fdba 849a a939
000000b0: 2e16 8f3b 79db 1bbc ec14 c7ba 145b f2bb
000000c0: 6c50 e2ba 9ac6 943a bb45 a9bb cf88 f3bb
000000d0: 6533 b239 8a0f ce39 faa4 7ebb 9ea0 f7bc
000000e0: 612b 123b b04b 0fbc 0479 283b 193e 80bc
000000f0: 1577 dcbb 691a 87bc bf1c 05bc 9f07 32bc
-0.0060729804 -0.013417747 -0.0021897485 -0.010167173 -0.003398769 -0.017721629 -0.0057005384 -0.010141712
0.0031301414 -0.019453604 -0.004211329 -0.016695146 -0.013189114 -0.012947323 -0.0029049774 0.0014606279
-0.011990315 0.0060961843 0.0020429203 -0.010322285 -0.008473422 -0.024873076 -0.014607561 -0.010485559
-0.0022758183 -0.0071593714 -0.001338535 -0.0018449011 -0.011055315 -0.011448997 -0.0043817684 -0.0061078873
-0.009429673 -0.006882746 -0.005177349 -0.0018563636 0.0030499392 -0.00219624 -0.016640868 0.0041415826
-0.003929796 0.0023076148 -0.0019308183 0.00032349315 0.0043666577 -0.009512776 -0.001518873 -0.0073961113
-0.0017266399 0.0011350692 -0.005165783 -0.0074320803 0.00033989098 0.0003930296 -0.0038855658 -0.030227955
0.0022303688 -0.008746073 0.0025706897 -0.01565461 -0.006728063 -0.016492086 -0.008124529 -0.010866075

batchnorm1.running_mean f4 [64]
00000000: 0000 0000 0000 0000 0000 0000 0000 0000
00000010: 0000 0000 0000 0000 0000 0000 0000 0000
00000020: 0000 0000 0000 0000 0000 0000 0000 0000
00000030: 0000 0000 0000 0000 0000 0000 0000 0000
00000040: 0000 0000 0000 0000 0000 0000 0000 0000
00000050: 0000 0000 0000 0000 0000 0000 0000 0000
00000060: 0000 0000 0000 0000 0000 0000 0000 0000
00000070: 0000 0000 0000 0000 0000 0000 0000 0000
00000080: 0000 0000 0000 0000 0000 0000 0000 0000
00000090: 0000 0000 0000 0000 0000 0000 0000 0000
000000a0: 0000 0000 0000 0000 0000 0000 0000 0000
000000b0: 0000 0000 0000 0000 0000 0000 0000 0000
000000c0: 0000 0000 0000 0000 0000 0000 0000 0000
000000d0: 0000 0000 0000 0000 0000 0000 0000 0000
000000e0: 0000 0000 0000 0000 0000 0000 0000 0000
000000f0: 0000 0000 0000 0000 0000 0000 0000 0000
0.0 0.0 0.0 0.0 0.0 0.0 0.0 0.0
0.0 0.0 0.0 0.0 0.0 0.0 0.0 0.0
0.0 0.0 0.0 0.0 0.0 0.0 0.0 0.0
0.0 0.0 0.0 0.0 0.0 0.0 0.0 0.0
0.0 0.0 0.0 0.0 0.0 0.0 0.0 0.0
0.0 0.0 0.0 0.0 0.0 0.0 0.0 0.0
0.0 0.0 0.0 0.0 0.0 0.0 0.0 0.0
0.0 0.0 0.0 0.0 0.0 0.0 0.0 0.0

batchnorm1.running_var f4 [64]
00000000: 0000 803f 0000 803f 0000 803f 0000 803f
00000010: 0000 803f 0000 803f 0000 803f 0000 803f
00000020: 0000 803f 0000 803f 0000 803f 0000 803f
00000030: 0000 803f 0000 803f 0000 803f 0000 803f
00000040: 0000 803f 0000 803f 0000 803f 0000 803f
00000050: 0000 803f 0000 803f 0000 803f 0000 803f
00000060: 0000 803f 0000 803f 0000 803f 0000 803f
00000070: 0000 803f 0000 803f 0000 803f 0000 803f
00000080: 0000 803f 0000 803f 0000 803f 0000 803f
00000090: 0000 803f 0000 803f 0000 803f 0000 803f
000000a0: 0000 803f 0000 803f 0000 803f 0000 803f
000000b0: 0000 803f 0000 803f 0000 803f 0000 803f
000000c0: 0000 803f 0000 803f 0000 803f 0000 803f
000000d0: 0000 803f 0000 803f 0000 803f 0000 803f
000000e0: 0000 803f 0000 803f 0000 803f 0000 803f
000000f0: 0000 803f 0000 803f 0000 803f 0000 803f
1.0 1.0 1.0 1.0 1.0 1.0 1.0 1.0
1.0 1.0 1.0 1.0 1.0 1.0 1.0 1.0
1.0 1.0 1.0 1.0 1.0 1.0 1.0 1.0
1.0 1.0 1.0 1.0 1.0 1.0 1.0 1.0
1.0 1.0 1.0 1.0 1.0 1.0 1.0 1.0
1.0 1.0 1.0 1.0 1.0 1.0 1.0 1.0
1.0 1.0 1.0 1.0 1.0 1.0 1.0 1.0
1.0 1.0 1.0 1.0 1.0 1.0 1.0 1.0

batchnorm2.weight f4 [64]
00000000: b38b 7e3f f119 7e3f 0000 803f 0000 803f
00000010: 0000 803f a858 7c3f e1e2 7d3f 0000 803f
00000020: e286 803f 6f7f 783f a459 7a3f 9ab0 7c3f
00000030: db9f 7b3f 4fa3 7d3f 0000 803f 0000 803f
00000040: 0000 803f 7846 7f3f 0000 803f 90b1 7a3f
00000050: 99ff 7b3f b009 7b3f e06d 7c3f 0000 803f
00000060: c574 7d3f 0000 803f 82b4 7d3f a0cb 7d3f
00000070: 0000 803f 0000 803f 34f3 7c3f 1eb8 7b3f
00000080: 7b4f 7e3f 0000 803f 6570 7c3f 0000 803f
00000090: 0000 803f 82ff 7d3f 0000 803f f1fb 7e3f
000000a0: 26d5 7f3f 292c 7e3f 0c4b 7f3f 3550 7b3f
000000b0: 3fee 7c3f 0000 803f 01a4 7d3f 2f8e 7c3f
000000c0: 916f 7d3f 9b68 7e3f c0b5 763f 0000 803f
000000d0: ef3c 7e3f 0a5d 7b3f 0000 803f a909 7b3f
000000e0: f070 7a3f 8629 7c3f f112 7c3f 9382 7c3f
000000f0: 6543 793f 3789 7c3f 392d 7e3f 78d9 7e3f
0.99431914 0.99258333 1.0 1.0 1.0 0.9857278 0.99174315 1.0
1.0041163 0.9706945 0.9779303 0.9870697 0.98290795 0.99077314 1.0 1.0
1.0 0.997169 1.0 0.9792719 0.98436886 0.98061657 0.98605156 1.0
0.990063 1.0 0.9910356 0.9913883 1.0 1.0 0.988086 0.98327816
0.9934003 1.0 0.98609 1.0 1.0 0.99218 1.0 0.9960318
0.99934614 0.99286133 0.9972389 0.9816926 0.98801035 1.0 0.99078375 0.98654455
0.9899836 0.99378365 0.9637108 1.0 0.9931173 0.9818884 1.0 0.98061615
0.9782858 0.9850086 0.984664 0.9863674 0.9736846 0.98646873 0.99287754 0.9955058

batchnorm2.bias f4 [64]
00000000: f689 a938 be83 223a d902 853a dcf3 5c3a
00000010: 4226 253a 8977 10bc 71d9 efba 1263 3f3a
00000020: 5884 2c3a c97d 00bb 44ea 6dbb 4833 ecba
00000030: 6c85 1cbb af87 8db9 4b45 ac3b 23fd 65ba
00000040: 2d02 e8b9 1780 c8b9 5caa 85ba e7f8 85bb
00000050: bea2 5cbb 429e 7cbb cb6c 9ebb fc78 7037
00000060: 0675 8ebb 00f5 35b6 4e0d adb9 a7fc a43a
00000070: dcab 78ba a51e 1f3a 1429 87bb 25a0 cab9
00000080: cfe5 8cba 4a27 00ba 61b6 09bc bbee 77ba
00000090: 6bfa 46ba 4c3c 3abb 0db2 9539 b458 72ba
000000a0: 8e3f 1e3a bc21 e0b9 51ba 1abb 9240 56bc
000000b0: 9c07 2ebb a6da f3b9 173a 55bb 0a4e 5fbb
000000c0: ba21 b0ba 1a80 8e3a 119c 17bb 3c57 2db9
000000d0: bd5e 4abb ff08 b7b9 bd59 8b3a 201f 33bb
000000e0: e49c 7238 7877 1cbb 80e7 6cbb c7e9 dcba
000000f0: 4504 963a dda5 02bc 3c8d 1c3a 24c2 a13a
8.084245e-05 0.00061994407 0.0010147943 0.0008428672 0.00062999513 -0.008817562 -0.0018299056 0.00073008344
0.0006581 -0.0019606224 -0.0036302963 -0.0018020654 -0.0023883237 -0.00026994708 0.005257284 -0.0008773377
-0.0004425211 -0.00038242407 -0.0010197866 -0.0040885094 -0.0033666338 -0.0038546477 -0.0048347465 1.4333284e-05
-0.0043474464 -2.711371e-06 -0.00033007044 0.0012587503 -0.0009486058 0.0006069935 -0.00412477 -0.0003864776
-0.0010749641 -0.0004888667 -0.008405299 -0.0009457876 -0.0007590416 -0.0028417287 0.00028552153 -0.0009244785
0.0006036692 -0.00042749743 -0.0023609588 -0.013076918 -0.0026554829 -0.00046511478 -0.0032535845 -0.0034073615
-0.0013437786 0.0010871917 -0.0023133794 -0.00016531063 -0.0030879222 -0.00034911183 0.0010631602 -0.0027331784
5.7843412e-05 -0.002387492 -0.0036148727 -0.0016854339 0.0011445364 -0.007974115 0.00059719733 0.0012341184

batchnorm2.running_mean f4 [64]
00000000: 0000 0000 0000 0000 0000 0000 0000 0000
00000010: 0000 0000 0000 0000 0000 0000 0000 0000
00000020: 0000 0000 0000 0000 0000 0000 0000 0000
00000030: 0000 0000 0000 0000 0000 0000 0000 0000
00000040: 0000 0000 0000 0000 0000 0000 0000 0000
00000050: 0000 0000 0000 0000 0000 0000 0000 0000
00000060: 0000 0000 0000 0000 0000 0000 0000 0000
00000070: 0000 0000 0000 0000 0000 0000 0000 0000
00000080: 0000 0000 0000 0000 0000 0000 0000 0000
00000090: 0000 0000 0000 0000 0000 0000 0000 0000
000000a0: 0000 0000 0000 0000 0000 0000 0000 0000
000000b0: 0000 0000 0000 0000 0000 0000 0000 0000
000000c0: 0000 0000 0000 0000 0000 0000 0000 0000
000000d0: 0000 0000 0000 0000 0000 0000 0000 0000
000000e0: 0000 0000 0000 0000 0000 0000 0000 0000
000000f0: 0000 0000 0000 0000 0000 0000 0000 0000
0.0 0.0 0.0 0.0 0.0 0.0 0.0 0.0
0.0 0.0 0.0 0.0 0.0 0.0 0.0 0.0
0.0 0.0 0.0 0.0 0.0 0.0 0.0 0.0
0.0 0.0 0.0 0.0 0.0 0.0 0.0 0.0
0.0 0.0 0.0 0.0 0.0 0.0 0.0 0.0
0.0 0.0 0.0 0.0 0.0 0.0 0.0 0.0
0.0 0.0 0.0 0.0 0.0 0.0 0.0 0.0
0.0 0.0 0.0 0.0 0.0 0.0 0.0 0.0

batchnorm2.running_var f4 [64]
00000000: 0000 803f 0000 803f 0000 803f 0000 803f
00000010: 0000 803f 0000 803f 0000 803f 0000 803f
00000020: 0000 803f 0000 803f 0000 803f 0000 803f
00000030: 0000 803f 0000 803f 0000 803f 0000 803f
00000040: 0000 803f 0000 803f 0000 803f 0000 803f
00000050: 0000 803f 0000 803f 0000 803f 0000 803f
00000060: 0000 803f 0000 803f 0000 803f 0000 803f
00000070: 0000 803f 0000 803f 0000 803f 0000 803f
00000080: 0000 803f 0000 803f 0000 803f 0000 803f
00000090: 0000 803f 0000 803f 0000 803f 0000 803f
000000a0: 0000 803f 0000 803f 0000 803f 0000 803f
000000b0: 0000 803f 0000 803f 0000 803f 0000 803f
000000c0: 0000 803f 0000 803f 0000 803f 0000 803f
000000d0: 0000 803f 0000 803f 0000 803f 0000 803f
000000e0: 0000 803f 0000 803f 0000 803f 0000 803f
000000f0: 0000 803f 0000 803f 0000 803f 0000 803f
1.0 1.0 1.0 1.0 1.0 1.0 1.0 1.0
1.0 1.0 1.0 1.0 1.0 1.0 1.0 1.0
1.0 1.0 1.0 1.0 1.0 1.0 1.0 1.0
1.0 1.0 1.0 1.0 1.0 1.0 1.0 1.0
1.0 1.0 1.0 1.0 1.0 1.0 1.0 1.0
1.0 1.0 1.0 1.0 1.0 1.0 1.0 1.0
1.0 1.0 1.0 1.0 1.0 1.0 1.0 1.0
1.0 1.0 1.0 1.0 1.0 1.0 1.0 1.0
