model.pt (torch, 25525 bytes, 13 tensors)

layer_1.weight f4 [64, 7]
000000 07 13 86 3e da 5a a5 3d d4 aa 67 be 51 43 0a be
       0.26186392 0.08073969 -0.2262376 -0.13502242
000010 c8 2c 04 3e 94 0a b0 be f8 25 a0 bd 9a f1 53 3e
       0.12907708 -0.3438307 -0.07819742 0.20697632
000020 ce 43 3b be 26 64 93 3e 6b 67 40 be cd c9 91 3d
       -0.18287584 0.28787345 -0.18789451 0.071185686
000030 0c 9e 93 be 55 f8 6c be 4a 4c 04 3e 9e 0a 09 be
       -0.28831518 -0.23141606 0.12919727 -0.13382956
000040 f8 ec aa 3e 74 e7 e5 bd 78 5e a4 3e a6 a9 14 3d
       0.33383918 -0.11225787 0.32103324 0.0362946
000050 13 60 de 3d 3b ee c6 be 25 bb 08 3e bd 0f 25 be
       0.108581685 -0.3885363 0.1335264 -0.16119285
000060 7c af e1 3d 74 7b b5 bd a8 c0 cc bd c5 fd be bd
       0.11019799 -0.088614374 -0.09997684 -0.093257464
000070 97 e4 e6 bd 23 bc 51 bc b9 cd b3 3e d1 9a c1 be
       -0.11274069 -0.012801203 0.3511789 -0.37813428
000080 a1 35 b9 3d 84 51 a3 be 42 30 83 be a2 e2 1b be
       0.09043432 -0.3189813 -0.25622755 -0.15223172
000090 7c 75 9f 3e c3 e9 86 3e 31 92 4e be 8f 98 9a be
       0.3114432 0.2635022 -0.20172955 -0.30194518
0000a0 6e 7f 80 be a9 1b 6f be 19 2e f9 bd b4 db 54 be
       -0.2509722 -0.23350395 -0.121669956 -0.20786935
0000b0 81 04 c8 bc f8 5f 72 bd 30 87 71 bd 7d 3b 8e 3e
       -0.02441621 -0.059173554 -0.058966815 0.2777976
0000c0 66 b5 95 3e 1f 9c 87 3e 82 fe 55 be 4f d3 6e be
       0.2923996 0.26486298 -0.20897868 -0.23322795
0000d0 8e 5b 0e be 34 d6 32 3e 69 56 90 bd ae a1 ca bd
       -0.13902113 0.17464525 -0.070477314 -0.09894119
0000e0 3d 64 4a be 07 91 c1 3e b5 97 1b 3e ce 54 88 bd
       -0.197648 0.3780596 0.1519459 -0.066568
0000f0 10 a1 a8 be ed 66 41 be 7f 63 a7 bd b3 d5 96 3e
       -0.3293538 -0.1888692 -0.08173274 0.29459915
000100 83 f9 33 be e0 a3 a4 bd 67 f3 24 be 71 62 80 bc
       -0.1757565 -0.08039069 -0.16108476 -0.01567194
000110 20 d5 b2 be 9b ce bd 3e 9c f8 7d 3e 81 66 68 3e
       -0.34928226 0.3707169 0.24801868 0.22695352
000120 6b 43 01 be cf e3 88 3d ff ee 5a 3e 9a 73 c0 be
       -0.12623374 0.06684076 0.21380232 -0.37588197
000130 d8 ae 3f be d3 53 90 3e f4 e2 96 bd ff 47 40 3e
       -0.18719041 0.28188953 -0.073675066 0.18777464
000140 cf 3c 90 bd 78 84 9b 3e 0a 6f 47 be 26 5c bc be
       -0.07042848 0.30374503 -0.19475952 -0.36789054
000150 f4 b0 a7 3e 53 bd 17 3e 77 c0 78 3e 80 31 c5 be
       0.32752192 0.14818315 0.2429217 -0.38514328
000160 08 36 5b 3e 17 37 47 be e6 e3 a3 3d d9 cf 6e be
       0.2140733 -0.19454609 0.080024526 -0.23321475
000170 7e a8 a7 3d 56 d7 04 be 5b ca 8f 3e 8e 97 b6 be
       0.08186434 -0.12972769 0.28084072 -0.35662502
000180 de e6 8a be 05 c9 a9 bc fe f4 73 3e 65 41 46 be
       -0.27129263 -0.020725736 0.23823926 -0.19360884
000190 a9 e1 02 be ce d4 b7 be 6a bf a7 3e 09 f8 a2 be
       -0.12781395 -0.35904545 0.32763225 -0.3182986
0001a0 ac f0 ae 3e d4 82 0a be df 5f 85 3e 89 22 b9 be
       0.34167993 -0.1352647 0.26049706 -0.3615916
0001b0 f1 d6 90 3e 0f e6 8b 3e a3 a1 24 be 6e c6 36 3d
       0.28288987 0.27323958 -0.16077285 0.04462283
0001c0 97 18 ab be 42 3b 02 bd 17 30 f9 3d 86 8a 88 be
       -0.33417198 -0.031794794 0.121673755 -0.26668185
0001d0 5a 6f 8c bd 59 e2 ba 3d fe a1 22 3e 70 e5 50 3e
       -0.06857176 0.09125204 0.15882108 0.20400023
0001e0 e6 3c 3f 3e 58 f0 f2 3d 89 78 b7 bd 4d 6b 12 3e
       0.18675575 0.11862248 -0.08958537 0.14298744
0001f0 a5 dc 7d 3e 9e f8 55 bd 61 c0 6e be 67 3c 43 be
       0.247912 -0.052239053 -0.23315574 -0.1906601
000200 52 2b a5 3e e9 d4 8f 3d b8 75 9a 3e 57 4a 83 bd
       0.32259613 0.07023031 0.30167937 -0.064106636
000210 71 bc 12 3e 2e 19 05 be 67 87 31 3e 41 21 8e bb
       0.14329697 -0.12997887 0.17336808 -0.0043374603
000220 7b f2 4a 3e 50 6d c0 bd bf dc 8c 3e cd 2e 33 3e
       0.19819061 -0.0939585 0.27512166 0.17498322
000230 5a aa 91 be 13 53 25 be b8 e7 49 3a 1c cd c1 3b
       -0.2845028 -0.16144972 0.000770207 0.0059143435
000240 58 fd 1d bc c0 1e 73 bd 1d f6 84 3e 33 42 61 3e
       -0.009642921 -0.059355497 0.2596902 0.21997909
000250 f5 18 4e 3e 10 ef fa 3d 07 23 91 bd 46 ef a0 3d
       0.20126708 0.12252629 -0.07086759 0.07858138
000260 82 f1 1c be 67 eb 52 3d d2 02 38 3e 1f b8 dc bd
       -0.15326503 0.05149403 0.17969826 -0.10777306
000270 a8 b1 07 3e 14 9c a3 be e8 ee 9e be cd 85 4b be
       0.13251364 -0.31955016 -0.31041646 -0.1987526
000280 ce 46 4d 3e bc 0a 14 3e 65 06 8b bd 5d 8d 0b be
       0.20046541 0.1445722 -0.06788329 -0.13628145
000290 6a b1 98 be eb 03 87 3e 14 39 60 be fa 28 f0 bd
       -0.29822856 0.26370177 -0.21896774 -0.11726566
0002a0 42 18 13 be 79 65 04 3e 75 59 8b be 4e 49 f5 3d
       -0.14364722 0.12929334 -0.27216688 0.119768724
0002b0 45 ac 96 bd b5 95 72 3d 00 90 b7 be 10 8d 0e bd
       -0.073570766 0.059224803 -0.3585205 -0.034802496
0002c0 6f de bc 3e db 60 a3 3e fa 26 80 be 92 45 74 3e
       0.36888453 0.31909832 -0.25029737 0.23854664
0002d0 ef b3 5a be 5d f5 4b be 1b 68 ae be 3e ee 40 be
       -0.21357702 -0.19917817 -0.340638 -0.18840882
0002e0 73 cc a6 3e 3f ee 51 be 4d 82 b1 be d9 cd e1 bc
       0.32577857 -0.2050104 -0.34669724 -0.027563976
0002f0 29 e5 9b be ab 9e 19 3e 44 eb a4 be 42 85 41 be
       -0.30448273 0.15001933 -0.32210743 -0.1889849
000300 92 17 ca 3d 15 29 ec 3c b1 1d 68 3e ff c3 bf 3e
       0.09867777 0.028828183 0.22667576 0.3745422
000310 74 40 8b 3e f0 d3 90 be bf b7 a6 3e ae 17 26 bd
       0.2719761 -0.28286695 0.32562062 -0.040549926
000320 6a 56 0f be 48 b3 76 3e f4 09 95 3e ae 86 a5 3e
       -0.13997808 0.24091828 0.29109156 0.32329315
000330 84 e0 71 be 6d 77 a1 3d fc e4 7c 3d ac 89 45 3e
       -0.23620802 0.07884107 0.061741814 0.19290799
000340 b5 f3 6a 3e 1a 28 c4 3e d1 54 9b 3d 26 47 3d 3e
       0.2294453 0.38311845 0.07584537 0.18484172
000350 d5 7c 4c be 71 84 a0 3e a0 d4 bf 3e 8d 68 87 bd
       -0.19969495 0.31351045 0.37466908 -0.06611738
000360 9a c5 f9 bb 60 e6 01 3e 3d 81 0c be 39 01 a6 be
       -0.007622433 0.12685537 -0.13721175 -0.32422808
000370 f2 09 4b be cc cc 84 3e 00 6f c0 3e 02 ec 2c 3b
       -0.19828013 0.25937498 0.37584686 0.0026385789
000380 0e 8b 80 be e1 f2 c3 3d 69 4b 32 be f6 f1 bf bd
       -0.2510609 0.0956781 -0.17411579 -0.09372322
000390 b6 e1 43 be f7 8d 91 be 9a 64 b7 be e6 19 c2 be
       -0.1912907 -0.28428623 -0.3581894 -0.37910384
0003a0 06 be 3f 3e 6f 12 8f be 4b be 55 be 85 c4 86 bd
       0.18724832 -0.2794375 -0.20873372 -0.06580452
0003b0 28 7d a1 3e 6e 75 1d be 5b ef 7c bd 61 11 52 3e
       0.315408 -0.15376827 -0.061751705 0.20514442
0003c0 6b 58 82 be 94 cb c3 be a7 a2 36 be 62 66 b0 3d
       -0.25458083 -0.38241255 -0.17835484 0.08613278
0003d0 97 80 de bd ff 52 91 3e a7 1f 00 be dc 72 01 bc
       -0.1086437 0.28383633 -0.12512074 -0.00790092
0003e0 a5 7d cf bd b2 33 f8 bc 5b 10 a1 3d a6 d6 a8 3d
       -0.10131387 -0.030298088 0.07864448 0.08244066
0003f0 46 5f 37 3d ca 44 a6 3e e6 72 83 3d a4 e6 c2 be
       0.044768594 0.32474357 0.064183995 -0.3806659

layer_1.bias f4 [64]
000000 4d 41 15 bd b4 b1 83 be aa ec 67 3e 18 99 5b 3e
       -0.03643923 -0.25721514 0.22648874 0.2144512
000010 80 19 ef bd 47 70 82 be 70 3c 95 be 4b 17 27 3e
       -0.116747856 -0.25476286 -0.29147673 0.1631748
000020 6c 45 a3 be c2 46 b6 3e f2 f5 99 be 90 e1 7a be
       -0.31888902 0.3560086 -0.30070454 -0.24500108
000030 69 2e df 3c 50 2e 0c 3e 0c 83 c5 3d 91 78 b9 3d
       0.02724381 0.13689542 0.09644136 0.09056199
000040 a9 d6 6c 3e bc 72 c9 3e bd 28 8f be d4 a8 02 be
       0.23128761 0.39345348 -0.27960768 -0.12759715
000050 1c ea 7f 3e a4 0f 93 3d c8 f0 c5 3d d0 a7 a4 3d
       0.2499165 0.071807176 0.09665066 0.0803982
000060 40 65 68 be cf 87 a0 be fd 09 b3 3c 0f 9b 7f bc
       -0.22694874 -0.31353614 0.021855349 -0.015600934
000070 fe 18 2c 3d 2c a5 65 3e 13 32 9b 3b 49 fd 16 3c
       0.042016022 0.2242629 0.004736194 0.009215661
000080 cb 6f f9 bd be a2 2d 3d aa 50 d4 bd 25 a6 97 3e
       -0.12179526 0.04239153 -0.10366948 0.29618946
000090 d3 0a 4b bc f0 ce 8c 3d 8a 80 54 bc 57 55 85 3e
       -0.012392717 0.06875408 -0.012970099 0.26041672
0000a0 45 14 26 3e 61 d5 f1 3d 29 de 8a bb df db 4f 3e
       0.1621867 0.11808277 -0.0042379093 0.20298718
0000b0 f5 5f a4 3e 24 d7 d6 3c 33 8c ab ba 93 54 c2 be
       0.3210446 0.026225634 -0.0013088047 -0.3795515
0000c0 93 d4 15 3e 54 91 84 3e 66 d1 27 3e 73 7e 3b 3e
       0.14631872 0.25892127 0.16388473 0.18309955
0000d0 65 d6 60 ba 0a 33 c7 3e 0a 95 a1 be d7 7c 97 be
       -0.0008576869 0.38906127 -0.3155902 -0.29587433
0000e0 d0 dc 20 be ba cf 88 be 3f 50 9d be 50 2c a7 be
       -0.15709233 -0.26720983 -0.30725285 -0.32650995
0000f0 86 f7 d2 bd 99 be 0b 3a 8b ff a9 3e 67 20 7f 3d
       -0.103011176 0.00053308305 0.33202776 0.06228676

layer_2.weight f4 [64, 64]
000000 20 f7 43 3d 42 46 f9 bc 6e 25 7c bd 9c 14 67 3d
       0.0478431 -0.03042901 -0.061559133 0.05641614
000010 4b 2e 11 bc 4d b2 d1 3d ee e6 1e be 71 63 a9 3c
       -0.008861135 0.10239086 -0.1551778 0.0206773
000020 88 34 a7 3c 1f 38 0c 3d a6 8c a9 3d 3e b5 a9 bc
       0.020410791 0.03423321 0.0827878 -0.020716306
000030 e5 9a e5 3c da 43 51 3d fb 5c 06 3c 3b 33 56 3d
       0.028027961 0.0510901 0.008200879 0.05229495
000040 4b cc d5 bd 37 b2 cd bd 61 bd 48 3c 83 4b cb 3d
       -0.104393564 -0.100437574 0.012252183 0.09926512
000050 a1 d9 45 3d 1a 9e 92 3d 50 4d f6 3c e1 20 8a 3c
       0.04830325 0.07159062 0.030066162 0.016861381
000060 ad 93 ba bd 49 74 2e bb 27 fc 46 3c 8b ba 42 3d
       -0.09110198 -0.0026619604 0.012145079 0.047541182
000070 df b1 c5 3d 9f 4f b2 bd 8c c4 e0 bb e6 3e c5 bd
       0.09653067 -0.08706593 -0.0068593677 -0.096311375
000080 64 dc d7 3c ce cb b0 3d c4 4e 8d bd 44 1d 9a 3c
       0.026350208 0.08632623 -0.06899789 0.018812783
000090 fd 46 5b 3c bf de ad bd c0 66 68 bd 82 28 e6 bd
       0.013383624 -0.08489751 -0.056738615 -0.11238195
0000a0 a9 73 35 3d b5 4e ae bd f7 d9 55 bd b2 3f 7b 3d
       0.044299755 -0.08511106 -0.05220982 0.06134004
0000b0 c6 4b e5 bd c4 6f 4a bd d0 05 5e bd 73 18 69 bd
       -0.11196093 -0.049422994 -0.054204762 -0.056908082
0000c0 52 12 39 3d e2 f7 ca bc 4f 54 6c bd 72 f0 a9 3d
       0.045183487 -0.024776403 -0.05769759 0.082978144
0000d0 d6 0b bf bc 23 12 44 3d 9c 9a 06 3e 9b 36 8f 3d
       -0.023321074 0.04786886 0.13144916 0.06992837
0000e0 00 12 22 3d 99 a8 d2 3d 9c e0 6a bb 7c cc ed bd
       0.039567947 0.10286064 -0.0035839444 -0.11611268
0000f0 3a d1 00 3d 70 02 37 3d 28 e1 88 3d c8 10 58 bc
       0.031449534 0.04468006 0.0668357 -0.013187595
000100 a3 8c e1 3d 23 c6 e1 bd 56 eb e0 bc 93 c1 b2 bd
       0.110131525 -0.1102412 -0.027455967 -0.087283276
000110 53 d4 7c 3c 8e bf 9c 3d 1a cc 9b bd 80 65 f9 3c
       0.015431481 0.07653724 -0.07607289 0.030443907
000120 76 08 b3 bc 1a 5a 4b 3d 1d 5e 7b 3c 64 33 4f 3d
       -0.02185462 0.049646474 0.015342263 0.05058612
000130 03 44 77 3c e3 22 44 3d d1 21 e5 bc fc 3b af 3d
       0.015091899 0.047884833 -0.027970226 0.08556363
000140 79 c7 b9 3d df ff 83 3d df bc 92 bb 29 99 ae 3c
       0.090712495 0.06445288 -0.0044780816 0.021313267
000150 d3 6e bd bd e0 7b d0 3d 6d 14 e7 3d 48 37 a8 bd
       -0.09249654 0.10179877 0.11283193 -0.08213669
000160 a8 57 a8 bd 92 9e 93 3d 1c 2d fb 3d 79 d5 b5 bd
       -0.08219844 0.07207979 0.12264463 -0.08878607
000170 3c 9c e7 bd 20 9f a8 3d ac 6b 7a 3d 77 b7 3a bd
       -0.11309096 0.08233476 0.06113784 -0.045585122
000180 08 7f 50 3d b3 91 df 3d 22 4b a7 bd 6a 69 8b bd
       0.050902396 0.10916462 -0.08168627 -0.068072155
000190 52 a1 1e 3d 23 32 ad 3d da 55 65 3d c2 7b c5 bd
       0.038728066 0.084568284 0.055990078 -0.096427456
0001a0 de a5 04 bd 51 16 74 bc 63 41 bd bd 4c 59 ed bc
       -0.032384746 -0.014897899 -0.09240987 -0.028973244
0001b0 d6 91 99 3c e0 8c 3e bd cc 24 cc bc 5a 9e 4b bd
       0.018746298 -0.046521068 -0.02491989 -0.049711563
0001c0 f8 e8 47 3d f2 4c 29 3d 8d 08 d2 3c eb c2 7c 3c
       0.04880616 0.041333146 0.025638843 0.015427331
0001d0 e9 95 51 3d 84 0b 88 3d 43 e6 be 3d 14 b5 11 bd
       0.051168356 0.066428214 0.09321263 -0.03557308
0001e0 c3 62 ac 3d cc 28 46 3c 0f f9 d3 3d 37 5c 84 bc
       0.08417275 0.012094688 0.103502385 -0.016157253
0001f0 f2 1d e4 bc 6c fb 58 bc 30 f1 c8 3d b9 bd e4 3d
       -0.02784631 -0.013243537 0.09811628 0.11168999
000200 bb c5 eb 3d 07 d5 c4 3d 69 f1 8f 3d 25 9e ca 3d
       0.115123235 0.09610944 0.07028467 0.09893445
000210 d8 d7 18 3d 71 24 5c bd 10 35 1c 3c 63 10 b1 3c
       0.03731522 -0.05374569 0.009534135 0.02161426
000220 5f f1 79 bb 94 90 00 be a1 cc a3 bb da 66 2e 3c
       -0.0038138253 -0.12555152 -0.004998759 0.010644639
000230 e9 dc 05 bb 6b f6 33 bc e1 28 a1 3d 1f 08 a2 3d
       -0.0020425862 -0.010984044 0.07869125 0.07911705
000240 0a 4b 6f 3d fd dc 1f bd c4 33 5d bd 5b e7 3c 3d
       0.058421172 -0.03902911 -0.054004446 0.046119075
000250 d4 1a 08 be 02 50 be bd d7 b2 8b 3c 63 2d ab 3d
       -0.13291484 -0.09292604 0.01705305 0.08358266
000260 01 ae 39 3d f5 3b aa 3b a0 44 db bd 3c ae cd 3d
       0.04533196 0.0051951357 -0.107064486 0.10042998
000270 da 10 95 3d 0b 2b 3a bd 9b b5 f9 bc 8a 59 82 3d
       0.07278605 -0.045451205 -0.030482104 0.063647345
000280 30 6e af 3d d3 25 a6 bd a0 2d d4 bc 32 5a e2 3d
       0.085659385 -0.08112683 -0.025900662 0.1105236
000290 43 03 f7 3d 7b f5 1e bd a3 21 86 3d 3e 49 f7 3d
       0.12061169 -0.038808327 0.065493844 0.12074517
0002a0 70 88 6e bc c1 a1 ae 3c 5d 69 31 3c c9 ac 82 bc
       -0.014558896 0.021317365 0.010828343 -0.015951531
0002b0 af 52 67 3d cd 1a 49 3d e9 b1 df bd 27 03 b8 3d
       0.056475338 0.049097825 -0.109226055 0.08984976
0002c0 c3 63 46 3d fc 17 a4 bd 9a a2 bf 3b ce 71 3d bc
       0.048434984 -0.08012387 0.005848241 -0.011562778
0002d0 e9 59 18 3c e9 77 0f be ec 3c 95 bd a9 ad 07 bd
       0.00929878 -0.14010586 -0.072870106 -0.0331246
0002e0 07 39 c1 bd fd 5e 95 3d ae 7e ee bd a8 91 07 3e
       -0.09434705 0.07293508 -0.11645256 0.13239157
0002f0 07 30 88 bd 6b 93 14 3c e6 a3 21 bd 81 1e 0b be
       -0.066497855 0.00906835 -0.039462946 -0.13585855
000300 4a 0a 6e bd 7f 7e 44 3d fe 12 b7 3d fa 2f 04 3e
       -0.05811528 0.0479722 0.08939169 0.12908927
000310 23 25 8e bd fb b7 a1 bd 5a ef 82 bd 1e 12 e7 3d
       -0.06940677 -0.078964196 -0.06393309 0.112827525
000320 ad 6e da bd f2 80 2d 3d d5 97 a8 bd 2d 0d 98 b9
       -0.10665641 0.0423593 -0.08232085 -0.00029001516
000330 0b 9d 26 bd be 00 e3 3d 36 97 7f bc ec 43 2b b9
       -0.04067711 0.11084126 -0.015600016 -0.00016333134
000340 c9 23 0a 3c 06 fa b3 3d 7c 53 27 bc 6a 73 8c bd
       0.008431383 0.087879226 -0.010212775 -0.06857951
000350 7a a2 9d 3b b8 41 5e 3d 5b 5c 67 bd 8e d7 b8 bd
       0.0048106285 0.054261893 -0.05648456 -0.09025489
000360 28 b9 9d bd e1 64 b7 bd d4 d8 7e 3d 39 0a 94 3d
       -0.077013314 -0.08954788 0.062218502 0.07228512
000370 8c a1 88 3c ac c7 48 bd ca 5c 84 3d b1 0e 72 3d
       0.016678594 -0.049018547 0.064630106 0.059096042
000380 70 6a fa bc bf 82 d7 bd b0 f1 04 b7 d9 da c2 bd
       -0.030568331 -0.10522985 -7.924085e-06 -0.09514398
000390 a8 f3 16 3b a1 6a f1 bc 3c 4b 88 bd b8 5d 1c bd
       0.0023033414 -0.02946979 -0.06654975 -0.038175315
0003a0 3a 7e fa bd 22 b9 3f bd c6 22 fd 3c 7e 6f 9c bd
       -0.12231107 -0.046807416 0.03090037 -0.07638453
0003b0 ea 7c 3f 3d 94 2a dc 3b a2 2c 58 bc e5 a0 ed 3c
       0.046749987 0.006718943 -0.013194235 0.029007385
0003c0 95 a8 62 bb cd 69 b1 bd 5d b6 45 3d 41 fa a8 bd
       -0.0034585346 -0.08662758 0.04826962 -0.08250857
0003d0 98 1a db bd c3 09 40 3d 77 14 b7 3d b1 1e fe 3c
       -0.10698432 0.04688431 0.0893945 0.031020494
0003e0 67 53 95 3d 69 d4 03 be 9b a6 4f bd f1 b5 b5 3c
       0.07291298 -0.12873997 -0.050695997 0.022181483
0003f0 9e 28 9a 3d 44 86 ac bd 39 0d 3e 3d 26 f4 d1 3d
       0.07527278 -0.08424047 0.04639933 0.10251646

layer_2.bias f4 [64]
000000 f6 21 99 3c 0e b1 c2 bd 97 06 05 3e f9 e9 8d bc
       0.018692952 -0.09506427 0.12990795 -0.01732348
000010 d0 30 cd bd 3f 79 1f bd 22 63 a9 3c 5f d8 ed 3d
       -0.10019076 -0.03893399 0.020677153 0.11613535
000020 7f c1 a0 bd 13 06 0f bd fe f8 d8 3d 57 24 de bc
       -0.078494065 -0.034917902 0.105943665 -0.027116938
000030 dc 30 79 3d 00 cd a5 3d a7 2a 8f 3d 5d 85 bb 3d
       0.06083761 0.08095741 0.06990557 0.091562964
000040 4f b1 a1 3d a7 90 5f 3d 12 94 67 3d 00 c1 b4 3d
       0.07895147 0.05458131 0.056537695 0.08825874
000050 25 3e eb bd 77 88 c8 3c 52 6d b9 3d 81 25 4e bb
       -0.114864625 0.024479134 0.09054054 -0.003145546
000060 70 01 9b bd 35 06 3f bd ee ea cc 3d 04 a4 e1 bc
       -0.075686336 -0.04663678 0.10005747 -0.027544029
000070 6c cc 09 3d f5 99 e5 bd e7 03 97 3d 4a 35 c9 3d
       0.033642218 -0.112110056 0.07373791 0.09824617
000080 6c 9e a5 3d a8 bc 55 bd ef ec f6 3d 93 07 15 3d
       0.08086857 -0.05218187 0.1205691 0.036384176
000090 27 31 35 bd 96 5c 8e bc c3 b9 96 bc bd 9c 4b 3c
       -0.04423633 -0.017378133 -0.018399125 0.012427506
0000a0 4e fd 82 3d ff 99 a3 3d 7d b5 2f 3d f1 2d b2 bc
       0.0639597 0.07988357 0.04289769 -0.021750422
0000b0 f5 21 b2 3d 97 2f d0 bd fe 26 e3 bd d3 70 4b 3c
       0.08697883 -0.10165327 -0.110914215 0.012417036
0000c0 4c 25 ec 3d c9 ae f1 bd b3 71 8a 3d 43 09 c8 bd
       0.11530551 -0.11800916 0.06759968 -0.097673915
0000d0 69 64 cd bd 71 40 bf 3b 65 38 37 3d 99 4c be bb
       -0.10028917 0.0058365394 0.044731516 -0.005807471
0000e0 53 07 e9 3d fa c3 c6 3d 15 86 04 3d 81 3d da bd
       0.1137835 0.09705348 0.032354433 -0.10656262
0000f0 ce 76 fc bd 08 ef d3 3d cb b5 c5 bd 8e 5f 72 bd
       -0.12327348 0.10348326 -0.09653815 -0.05917316

layer_out.weight f4 [1, 64]
000000 af a1 d4 bd ed 3e 2f 3d e8 5d a9 3d dc 78 e8 bd
       -0.10382401 0.04278462 0.08269864 -0.11351177
000010 8a 58 5c bd e6 9f 0f be cb 71 d9 3d b4 b1 58 bd
       -0.053795375 -0.1402584 0.106174074 -0.052903846
000020 dd 7b c5 bd 1c 4d f4 bb 1d f7 be 3d c7 ed fb bd
       -0.09642766 -0.007455481 0.09324477 -0.12301212
000030 92 e5 38 bd 5d ea 75 3d 76 6e ec bd cb d7 c6 3d
       -0.04514081 0.06003796 -0.11544506 0.09709128
000040 f4 e7 53 bd 02 da 9b bd 71 10 da 3c 1c fe 5d bb
       -0.05173488 -0.07609941 0.026619168 -0.0033873385
000050 23 d7 2c 3e 50 e6 bd 3d b2 dd ef bd 98 b2 bd 3d
       0.16878943 0.09272444 -0.11712207 0.0926258
000060 ae 23 75 3d fb 5d 8c 3d ec 61 0a 3e 44 03 45 bd
       0.05984848 0.06853863 0.13513917 -0.048098817
000070 3e 24 97 3d dc 6b b7 3d 85 99 d2 bd b9 af 9f 3d
       0.073799595 0.089561194 -0.10283188 0.07797188
000080 6f aa b9 3d 44 91 ad 3d 76 96 e6 3d 70 9b aa bd
       0.09065711 0.08474973 0.11259167 -0.083304286
000090 49 03 cb 3d c6 92 fc bd 8d 0d 3e bd 90 71 bc 3d
       0.09912736 -0.12332682 -0.04639964 0.09201348
0000a0 c4 b1 97 bd 36 8d 55 3d 7a ac ac bd 68 5f fb bd
       -0.07406953 0.052136622 -0.08431335 -0.12274057
0000b0 b1 9b be bd 9e f3 e1 3d 14 6f 17 be e4 80 02 3e
       -0.093070395 0.110327944 -0.14788467 0.1274448
0000c0 71 d1 12 3e 5c 94 43 3d 59 2a c5 3c 6e b7 6f bd
       0.14337708 0.04774891 0.024068044 -0.05852454
0000d0 90 5b 0c 3d d6 5e 22 bd e5 ef 3b bd 5e 64 6c bd
       0.03426701 -0.039641224 -0.045883078 -0.057712905
0000e0 dc 2e c6 3d 6f 72 21 3e af fd c4 3d 82 2e bd 3d
       0.096769065 0.15766309 0.09618699 0.09237386
0000f0 2e de 66 3d 8d ec 08 3e ba dc 51 bd f0 93 8d 3c
       0.05636423 0.13371487 -0.051235892 0.017282456

batchnorm1.weight f4 [64]
000000 87 19 7f 3f da 13 7f 3f 1a e2 7f 3f d6 77 81 3f
       0.99648327 0.99639666 0.9995438 1.0114696
000010 f6 f5 7d 3f b0 aa 7f 3f c4 24 86 3f 94 85 7e 3f
       0.9920343 0.99869823 1.047997 0.99422574
000020 3b a1 7c 3f b7 1e 82 3f 4c 8e 79 3f 7b f3 81 3f
       0.9868352 1.0165623 0.9748275 1.0152429
000030 64 9e 7d 3f a0 4b 80 3f d3 50 7e 3f a4 5c 79 3f
       0.9906981 1.0023079 0.9934208 0.97406983
000040 d6 47 7c 3f 05 fe 79 3f a3 94 7a 3f fb c9 7b 3f
       0.9854711 0.9765323 0.9788305 0.9835507
000050 70 1b 84 3f e6 ff 7b 3f 61 dc 84 3f 2a 35 7b 3f
       1.0320873 0.98437345 1.0379754 0.98127997
000060 94 ea 7a 3f 95 6a 79 3f ca 17 81 3f 4f 1d 7c 3f
       0.9801419 0.97428256 1.0085385 0.9848222
000070 b9 0c 7f 3f 9f d9 81 3f cd 2a 80 3f f1 b4 79 3f
       0.9962879 1.0144538 1.0013062 0.9754172
000080 4d 56 7f 3f b0 fc 80 3f bb c0 7c 3f a2 4c 82 3f
       0.9974106 1.0077114 0.98731583 1.0179636
000090 1b 45 82 3f 31 35 84 3f 63 78 77 3f 10 0f 7e 3f
       1.0177339 1.0328733 0.9666807 0.99241734
0000a0 05 21 7c 3f de ee 7b 3f 4c 68 7d 3f 51 e0 80 3f
       0.98487884 0.9841136 0.9898727 1.0068456
0000b0 e7 0b 82 3f f8 f9 84 3f 94 a7 7a 3f e8 19 7e 3f
       1.0159882 1.0388784 0.97911954 0.9925828
0000c0 1c 97 80 3f 0d c3 79 3f a7 f2 81 3f b7 e7 7a 3f
       1.0046115 0.9756325 1.0152177 0.9800982
0000d0 40 e5 82 3f b7 f7 7e 3f 72 b1 81 3f 3a 73 7b 3f
       1.0226212 0.9959673 1.0132277 0.98222697
0000e0 b7 13 7d 3f ff fd 82 3f a4 b4 80 3f ec 22 82 3f
       0.9885821 1.0233763 1.0055127 1.0166907
0000f0 ef 8d 81 3f b1 44 7b 3f 20 9b 7c 3f 7c a6 82 3f
       1.012144 0.9815169 0.986742 1.0207057

batchnorm1.bias f4 [64]
000000 ea ee 45 3c 09 d5 4e ba 88 56 f2 39 10 10 30 3d
       0.012080887 -0.0007890021 0.00046222308 0.04298407
000010 f0 b2 dd bb 21 f5 22 bc b1 44 c9 3b 03 1e 83 bc
       -0.006765716 -0.009946139 0.006142222 -0.016005522
000020 29 a1 12 3a ae 8d 66 bb 17 66 09 3d 36 56 4f 3c
       0.0005593473 -0.0035179663 0.033544626 0.012654832
000030 49 5e a6 bc 12 ff 80 bb 2d 4d ee 3c 40 ee 3f bc
       -0.02030863 -0.0039366568 0.029089535 -0.011714518
000040 7d 5e 11 3c 2c bd ad bc 9d 55 56 bc 44 bb b6 3b
       0.008872625 -0.021208368 -0.013081935 0.005576523
000050 a1 11 06 3c 9a 3a 1d 3c dc 79 38 bd f3 81 ac 3c
       0.008182914 0.009596491 -0.04503809 0.021058058
000060 14 9a dc 3c 8b fc 61 3b 7f 9d b7 bc be 93 ff 3c
       0.026928939 0.0034482803 -0.022413967 0.031198379
000070 3a 41 94 3c 8f 2a 05 bd 05 8c 81 bb 5b 86 cc bc
       0.018097509 -0.03251129 -0.003953459 -0.02496641
000080 bc 38 02 3c 47 8c 5f 3c c3 2e 18 bd f9 f7 99 3c
       0.007948097 0.013644285 -0.03715397 0.018795
000090 ff ee 80 3c b7 6a ca 3b 7e e1 14 3c dc a0 8f bb
       0.015738962 0.006177272 0.009086965 -0.0043831896
0000a0 9d 2e 00 3c a4 91 5b 39 d0 3d de 3b 89 f0 dc 3c
       0.0078236135 0.00020939723 0.006782271 0.026970165
0000b0 87 e0 3a bb 0e 78 16 3d e5 06 63 3c ac c1 e0 bc
       -0.0028515176 0.036735587 0.013856624 -0.0274361
0000c0 df db 47 bc c8 70 4c bd b4 df ab 3c 19 dc d6 3c
       -0.012198417 -0.049912244 0.020980693 0.026227998
0000d0 72 be b3 ba 01 c0 08 bc 83 3e b7 3c 79 a7 51 bd
       -0.0013713373 -0.008346559 0.022368675 -0.051185105
0000e0 fd e8 44 bc 0b 4a 82 3a 83 0f d5 bc 40 52 16 b6
       -0.012018439 0.0009940279 -0.026008373 -2.2399618e-06
0000f0 49 11 93 bc 9b 6d 22 bb 8b 07 e0 bc 6b 69 32 bc
       -0.017952578 -0.0024784568 -0.027347347 -0.010889391

batchnorm1.running_mean f4 [64]
000000 dc f3 31 3e ca cb c3 3d b2 b2 ab 3e 34 67 a5 3e
       0.17378181 0.09560354 0.3353477 0.323053
000010 72 d9 5e 3e 8a d7 33 3e 70 f2 a6 3d e2 45 83 3e
       0.21762636 0.1756269 0.0815171 0.25639254
000020 c5 8e ee 3d 3f dd e1 3e ac e7 0a 3e 10 65 0e 3e
       0.11648325 0.4411411 0.13564938 0.1390574
000030 15 c2 78 3e d2 fd a6 3e 00 8d 94 3e cd 8a af 3e
       0.24292786 0.32615525 0.29013824 0.34285584
000040 90 9e be 3e a8 65 ec 3e 6f ba 93 3d 9b 51 d9 3d
       0.3723035 0.46171308 0.07213294 0.10611268
000050 98 37 b2 3e a3 2e 4d 3e 92 5a 97 3e 21 de 45 3e
       0.3480804 0.20037322 0.29561287 0.19323017
000060 49 c2 e2 3d ab 0f e1 3d 29 f2 cd 3e b4 8e 6a 3e
       0.11072213 0.109893166 0.40223816 0.22906
000070 2e 38 8c 3e 48 52 d8 3e ab 82 ab 3e e7 09 77 3e
       0.27386612 0.42250276 0.3349813 0.24124871
000080 a7 2c 76 3e c3 6a 89 3e 50 0d 39 3e 95 cb a2 3e
       0.24040471 0.26839265 0.18071485 0.31795946
000090 d0 fa 69 3e 8f 04 66 3e a2 05 7f 3e 29 d7 b1 3e
       0.22849584 0.22462676 0.24904492 0.34734467
0000a0 72 9d bd 3e 7d d3 56 3e 3e 80 f1 3d 85 33 a0 3e
       0.37034184 0.20979114 0.117920384 0.31289306
0000b0 c2 6a b9 3e 4f 3e 1e 3e e0 e5 d1 3e 65 61 05 3e
       0.36214262 0.15453456 0.40995693 0.13025434
0000c0 20 c0 b4 3e 6c 1b b7 3e a1 fc bd 3e d0 e3 85 3e
       0.3530283 0.3576311 0.37106803 0.2615037
0000d0 79 88 79 3e dd f7 e1 3e 5b 60 3e 3e ef cb 81 3d
       0.24368466 0.44134417 0.18591444 0.06337725
0000e0 84 a0 1f 3e bd 08 43 3e 20 0c fd 3d f8 18 57 3d
       0.15588576 0.19046302 0.12355828 0.052514046
0000f0 8c 3d 18 3e ce 64 4e 3e 54 6d e2 3e e5 52 98 3e
       0.14867228 0.20155641 0.44224036 0.29750744

batchnorm1.running_var f4 [64]
000000 c5 ce 93 3d cb 7c 1a 3d 02 25 09 3e 7c 60 08 3e
       0.072171725 0.037716668 0.13393024 0.13318056
000010 83 c2 dd 3d 4a 3a c4 3d 2c 71 08 3d bc a2 ae 3d
       0.10828116 0.0958143 0.033311054 0.08527133
000020 cf 92 63 3d 57 f3 3f 3e 0e 5f 9e 3d 2e 38 aa 3d
       0.05555993 0.1874517 0.07732974 0.08311497
000030 6d ff f0 3d 3a cb 25 3e bc bf 1c 3e a3 d7 3d 3e
       0.117674686 0.16190806 0.15307516 0.1853929
000040 72 f3 24 3e 80 6e 47 3e 2b 6b d7 3c 06 60 0c 3d
       0.16108492 0.19475746 0.026296219 0.034271263
000050 25 5b d4 3d 35 6d 7b 3d 12 38 15 3e 58 8e 89 3d
       0.10368947 0.061383445 0.1457217 0.06716603
000060 e8 6c 39 3d cf 28 56 3d 6b 3a 98 3e fc a1 f8 3d
       0.045269877 0.05228501 0.2973207 0.12140271
000070 fb b3 0a 3e 21 9a 5c 3e fc 18 36 3e 21 0b e6 3d
       0.1354522 0.2154317 0.17782968 0.112325914
000080 e6 0d 20 3e 1b 73 15 3e 00 b7 9e 3d 7c 8e 6c 3d
       0.15630302 0.1459469 0.07749748 0.05775307
000090 1f c3 e0 3d ad 89 dc 3d cd 32 08 3e 24 84 e3 3d
       0.109747164 0.10768447 0.13300629 0.11109188
0000a0 06 61 5b 3e b4 47 6c 3d 7d 29 dc 3c 46 92 f9 3d
       0.2142373 0.05768557 0.026875252 0.121861026
0000b0 1f cb db 3d de 6a 42 3d b4 33 a1 3e 6a 7a 95 3d
       0.10732102 0.047465198 0.3148476 0.07298739
0000c0 09 34 41 3e 3e 62 0d 3e 45 37 69 3e 0e 61 ac 3d
       0.18867506 0.13807008 0.2277499 0.08416949
0000d0 3c 0d 08 3e d1 33 dd 3d 50 15 e4 3d 36 6c e2 3c
       0.13286299 0.10800899 0.111368775 0.02763949
0000e0 2c 48 a3 3d 06 38 d4 3d 90 e7 70 3d 47 6c 93 3c
       0.0797275 0.10362248 0.058814585 0.017995967
0000f0 21 6b 64 3d 3e 44 9f 3d b3 cc 3f 3e da 33 38 3e
       0.05576623 0.07776688 0.1873043 0.1798853

batchnorm2.weight f4 [64]
000000 c1 e0 80 3f a3 61 7b 3f 63 17 80 3f e6 ee 83 3f
       1.006859 0.98195857 1.0007137 1.0307281
000010 5c 55 81 3f af a2 83 3f b9 8c 7c 3f 1a 2a 82 3f
       1.0104175 1.0284022 0.98652226 1.0169098
000020 64 95 80 3f cb 74 7d 3f c9 e7 86 3f d7 01 83 3f
       1.004559 0.99006337 1.0539485 1.0234936
000030 60 db 82 3f 5b 85 85 3f a8 99 82 3f 19 6e 85 3f
       1.0223198 1.0431322 1.0203142 1.0424224
000040 92 30 83 3f e1 a0 82 3f 38 2f 81 3f 90 70 7c 3f
       1.0249197 1.0205346 1.0092535 0.98609257
000050 f6 39 86 3f 23 a6 85 3f 45 e9 82 3f d4 cf 86 3f
       1.0486438 1.0441326 1.0227438 1.0532174
000060 42 26 85 3f 47 e4 7e 3f ea c9 83 3f b5 a0 7d 3f
       1.04023 0.99567074 1.0295994 0.99073344
000070 3d f4 86 3f d8 89 80 3f 2b 45 84 3f ce 2a 84 3f
       1.0543286 1.0042067 1.0333608 1.0325563
000080 6f 12 85 3f 75 73 84 3f aa b8 83 3f 54 07 84 3f
       1.039625 1.0347735 1.029073 1.0314736
000090 c7 2f 81 3f 4e 78 80 3f 4e 09 85 3f 58 66 83 3f
       1.0092705 1.0036714 1.0393465 1.0265608
0000a0 ea 9f 83 3f 63 17 89 3f f4 d1 80 3f 3d a3 83 3f
       1.0283177 1.0710262 1.0064073 1.0284191
0000b0 6c 97 81 3f 51 fd 7d 3f 81 40 83 3f 71 e0 84 3f
       1.0124335 0.99214655 1.025406 1.0380994
0000c0 6a 1f 84 3f fa 2b 87 3f 3e d7 83 3f cf 1a 88 3f
       1.0322087 1.0560296 1.0300062 1.0633181
0000d0 f8 94 7d 3f e5 2c 86 3f 38 0b 87 3f 1b da 7a 3f
       0.99055433 1.0482451 1.0550299 0.9798905
0000e0 ca aa 80 3f f3 8f 84 3f 8b 04 7f 3f 72 e8 85 3f
       1.0052121 1.035643 0.9961631 1.0461562
0000f0 87 6b 82 3f 79 96 85 3f 34 1f 84 3f 4c fd 81 3f
       1.0189065 1.0436546 1.0322022 1.0155425

batchnorm2.bias f4 [64]
000000 7a ae d6 3c 24 10 e5 bc cd 6a f0 bc 6f 68 01 3d
       0.026206244 -0.027961798 -0.029347802 0.031593736
000010 15 b7 a9 3c 46 23 f1 3c a2 34 c6 bc c8 4b cc 3c
       0.020717183 0.029435765 -0.02419502 0.024938479
000020 e7 73 d1 3c 09 97 ee 3c a2 32 e1 bc 95 e6 f5 3c
       0.025567962 0.029124754 -0.027489964 0.030017177
000030 9b b3 02 3d 10 62 e0 bc 93 6f df 3c ec d1 e5 bc
       0.031909566 -0.02739051 0.027274882 -0.0280542
000040 a0 08 e5 3c f2 ec d8 3c 80 a4 fa bc ec 1c a0 3b
       0.027958214 0.026480172 -0.030596018 0.0048862603
000050 5b 8b b7 bc e1 c2 cf bc 92 5a fa 3c 9b 85 cb bc
       -0.022405317 -0.02536148 0.030560765 -0.024843981
000060 e0 d1 04 bd 0c 3d d3 bc 2d 79 d4 bc d2 30 c7 3c
       -0.032426715 -0.025785945 -0.025936687 0.024315272
000070 63 45 d1 bc d7 83 a9 bc 73 1e cc 3c be 1b ec bc
       -0.025545781 -0.020692749 0.024916863 -0.028821822
000080 0e ad ca bc 9a 69 db bc cc 0d e6 bc 29 87 d5 3c
       -0.024740722 -0.026783753 -0.02808275 0.026065426
000090 e6 33 ec bc 39 d1 e8 3c 6b 83 dc 3c 5d 8d de bc
       -0.02883334 0.028420078 0.026918134 -0.027167017
0000a0 6e 34 f2 3c 45 5d 09 bd ba 54 bc 3c 59 5e c8 3c
       0.029566016 -0.033536214 0.02298962 0.024459051
0000b0 25 8f d9 3c 80 b0 dc bc d1 e6 b1 3c c5 9d dd bc
       0.026557514 -0.02693963 0.021716507 -0.02705277
0000c0 27 a3 b2 bc 92 f5 fa bc 42 b0 aa bc 2f c5 ea 3c
       -0.021806313 -0.030634675 -0.020836 0.028658478
0000d0 a6 65 dc bc 07 83 8e 3c cf 80 0a 3d ef e8 fa 3c
       -0.026903939 0.017396463 0.033814248 0.03062865
0000e0 46 e1 e7 bc 9c ea de bc 54 33 b5 bc 35 fa d2 bc
       -0.028305661 -0.02721148 -0.022119202 -0.025754074
0000f0 66 34 f1 bc 1c c1 d4 bc c4 5b f8 3c 56 2f c6 bc
       -0.02944393 -0.025970988 0.030317195 -0.024192493

batchnorm2.running_mean f4 [64]
000000 b0 4a 82 3e 35 63 3f 3e 6c 72 ab 3e 01 08 51 3e
       0.25447607 0.18690188 0.33485734 0.2041321
000010 56 db 4e 3e c0 97 8b 3e 34 8c 82 3e 71 37 af 3e
       0.20200858 0.27264214 0.25497591 0.34221986
000020 3a a3 2c 3e 48 cf 8e 3e 3f 65 8e 3e 30 b4 81 3e
       0.16859141 0.27892518 0.2781162 0.25332785
000030 e1 ef 83 3e c4 1d a1 3e 4b 4a d6 3e f0 d4 98 3e
       0.2576895 0.31468022 0.41853556 0.29849958
000040 00 fd a4 3e d1 b9 c3 3e 96 dd ae 3e ba 14 8c 3e
       0.32224274 0.38227704 0.34153432 0.27359563
000050 7c c5 3c 3e 05 b6 70 3e 9c c2 a7 3e 6b 10 8a 3e
       0.1843471 0.23506935 0.32765663 0.2696565
000060 92 a1 7c 3e b2 d9 23 3e 84 72 9e 3e dd 92 75 3e
       0.24671009 0.16001013 0.30946743 0.23981805
000070 7f ae 57 3e bb 8c 10 3e a5 d0 92 3e 0d a7 da 3e
       0.21062659 0.14116184 0.28674808 0.42705575
000080 73 57 86 3e 16 bc 69 3e 99 cb c8 3e c1 2e d2 3e
       0.26238593 0.22825655 0.39217833 0.41051295
000090 61 51 43 3e 86 1f 49 3e 2e 52 6e 3e 1c b4 80 3e
       0.19074012 0.19640931 0.23273537 0.25137413
0000a0 5f fe 98 3e 6b 95 98 3e d4 8c 62 3e a5 eb a7 3e
       0.2988157 0.29801497 0.22124034 0.3279697
0000b0 f5 ee b6 3e 52 0b 18 3e 79 71 72 3e a9 95 db 3e
       0.35729185 0.14848068 0.23676099 0.4288762
0000c0 fb 2f c6 3e 6d 93 2a 3e e0 ca 8b 3e cd 3b 15 3e
       0.3870848 0.16657801 0.2730322 0.14573593
0000d0 11 5e 42 3e be 8b 29 3e 56 8a 5f 3e 5d 52 5c 3e
       0.18981196 0.16557214 0.21830115 0.21515794
0000e0 60 65 7c 3e 39 f6 94 3e ee 41 7e 3e 17 d6 81 3e
       0.24648046 0.29094103 0.24829838 0.2535865
0000f0 d3 fc 46 3e 2f 99 a0 3e b3 76 4e 3e 2d 4e a3 3e
       0.19432382 0.3136687 0.20162468 0.3189558

batchnorm2.running_var f4 [64]
000000 cf 2f e5 3d 35 5d 13 3e 5b 5d f8 3d 92 b9 c2 3d
       0.111907594 0.14391024 0.12127181 0.09508051
000010 7a 60 fb 3d 37 42 6d 3e 84 00 06 3e 53 1c 46 3e
       0.12274261 0.2316979 0.13086134 0.19346742
000020 ff ae 87 3d a1 0c 2e 3e 1a 50 08 3e 35 78 17 3e
       0.06625175 0.16997005 0.13311806 0.14791949
000030 0d 5d 11 3e 7a 53 19 3e 3a de cc 3e 64 37 1f 3e
       0.14195652 0.1497325 0.40013295 0.15548474
000040 4c 26 89 3e 63 b0 88 3e 37 f8 91 3e 98 82 e6 3d
       0.2678703 0.26697072 0.28509685 0.112553775
000050 88 4e 9b 3d 83 85 07 3e b5 16 f1 3d 7f 5c 27 3e
       0.07583338 0.13234524 0.11771909 0.16343878
000060 93 9f 2e 3e 6e a1 6d 3d 9e ea 28 3e 72 98 18 3e
       0.1705306 0.05801528 0.1649575 0.14901903
000070 0c 79 99 3d 1c a6 7c 3d 2f 2f 14 3e 06 13 bd 3e
       0.07493791 0.06168185 0.14471124 0.36928576
000080 c3 e8 ed 3d 80 8a d3 3d 35 66 4e 3e dd cb 06 3f
       0.116166614 0.10329151 0.20156176 0.5265482
000090 b1 d1 a1 3d 4a f6 e9 3d f4 e5 19 3e 02 c8 3c 3e
       0.079013236 0.11423929 0.15029126 0.18435672
0000a0 ca 1d 1b 3e ab 68 23 3e a6 f8 b3 3d a9 59 8b 3e
       0.15148082 0.15957896 0.0878766 0.27216843
0000b0 80 00 8b 3e db d7 bb 3d 93 ae 3e 3e 6f a5 ad 3e
       0.2714882 0.091720305 0.18621282 0.33915278
0000c0 5d a1 48 3e 14 93 cf 3d d5 44 e2 3d 93 a5 93 3d
       0.19592805 0.10135475 0.11048285 0.07209315
0000d0 14 03 04 3e 48 6a 8b 3d 7c 4c 97 3d 7c 04 0e 3e
       0.12891799 0.06807381 0.07387635 0.13868898
0000e0 c4 57 a3 3d bc 58 fa 3d 70 53 cf 3d cf c3 13 3e
       0.07975724 0.12223956 0.10123336 0.14430164
0000f0 fe 30 a8 3d c8 34 3e 3e 84 25 ad 3d 08 f2 6f 3e
       0.082124695 0.18574822 0.08454421 0.23432171
