newModel.pt (torch, 24757 bytes, 13 tensors)

layer_1.weight f4 [64, 4]
00000000: de36 e2be deee 82be ddeb 443e c5e6 c53e
00000010: af04 87bb e18e 83be 5b89 dbbe c65d f2bd
00000020: 7800 c83e c839 aa3e 20c0 143e b071 20be
00000030: a6a0 dcbe e4a0 d1bc bdbd 98be e80f e43b
00000040: c814 17bc cfe9 1d3e feca 06be f6a2 063e
00000050: 4e06 dbbe 2561 c7be c63f f5bc 71f7 b83e
00000060: 62d1 65be 9b22 c93a fae0 8bbe 328a f83e
00000070: 7555 f5bd b3ff efbe 829e 83be 39da 85be
00000080: 1db8 9b3e f7df ab3d 26b5 2b3e d0e1 a9be
00000090: 831e f23e 556b 233e 6a51 df3d bde4 02bf
000000a0: 1b15 923e 622d b63e bd0b 0d3d 87a9 e3be
000000b0: b0fe 0fbd 0fcf 303e e1ae c8be 408c 9c3e
000000c0: fd95 6c3e f134 853d c021 2b3e 24b0 a23d
000000d0: 57ff a1be 3283 9abe 75d6 443d d143 b03d
000000e0: 0d48 c13d 2bc4 a0be be44 c9bd fabd e63e
000000f0: df1a e4be e299 9cbe 0019 cebe d328 eabd
00000100: 950f 34be c9d8 77be 76f5 ba3d 56bd e9be
00000110: 9732 9bbc 307d cb3e 195d 08bd 6470 423e
00000120: 10f4 ccbe 3264 89be 695a 17be e766 9bbe
00000130: be5a aebe 1ebe 97be 731a 653e ab0f f5be
00000140: a1cb 0bbe 903c 493d 41de 273e 0149 babe
00000150: 59db c3be b7ae cfbe cd25 363d 8eff debe
00000160: cf64 583e bdaf fbbd 41a4 973e e152 a23e
00000170: a39a d43e 6cc8 92be 5381 223e f094 173e
00000180: 7dc5 96be fab3 d63d 4185 f23e c3b5 dc3d
00000190: 3d8e b33e 0e78 0bbe 2030 913e c8e7 ab3e
000001a0: e9d1 11be 7b32 fdbd b942 75bd 41ec 90be
000001b0: ced2 ba3e 2e8b 963e 2cf5 cc3e 9281 fa3e
000001c0: 6344 f6be f7d7 8b3e ac28 e43e 432f 1a3d
000001d0: b575 23be 1464 ca3e 084c 9a3e eea5 57be
000001e0: 9fff 27bd d417 943e da92 dfbd 8794 b43e
000001f0: 0010 e5be d13c 8abe 12e7 6c3e 4fb3 fcbe
00000200: c918 41be cfd2 b13e ae25 ccbe e1ef e43e
00000210: 3444 cabe 72fd 4abe 822f 46bd 7194 25be
00000220: 8d7d 84be 66b1 9cbe e3db 103e 44cc 013f
00000230: 1349 c5be a4ef 64be 30ab 03be 5330 b0be
00000240: 14e6 933e 5399 803c 5859 b5be a9e8 3cbe
00000250: 606d dbbe ead0 d1bc 9882 483d c4a4 0a3d
00000260: 1a7c d63d 2c76 eebe 3f8e c2bd 541c c53e
00000270: dbc8 bfbe 4037 02bf 387b d03e 06c0 f63e
00000280: 8e93 8e3e 3637 df3e f71e e13e 86b0 9fbe
00000290: 3441 e23e ae7e 423e 0496 f1be 4377 ebbe
000002a0: 75f7 96bc 2aa8 553d 884c b9be 1a1c 25be
000002b0: 8515 9cbd ea7a e63e efc7 6abc 19ee 69be
000002c0: 7019 dfbe c76c d6be 3584 a0be 38b6 d93e
000002d0: 2f33 a0bc 458a 91bc d230 f8bd 8df7 ed3d
000002e0: 7982 62be 194a 353e 6f02 ba3e e197 a23e
000002f0: d3c4 863e f329 e1be c958 d4be eb69 9cbe
00000300: 0164 9abe 1802 aa3e 8377 b53d e9e3 96bd
00000310: 5aa0 a93e 1924 ddbd 8e71 383c 0cc8 e63e
00000320: 7bbc 913e 75b0 02bf d1e2 923e 98d2 09be
00000330: 5f78 52bd a602 1f3e 00f2 16be 4947 8d3e
00000340: 79e7 6abe b346 993d b0e1 91be d3b7 aa3e
00000350: a949 83be 6e1e be3e 7067 e9be 0a11 8e3e
00000360: 93d0 5bbe 2345 953e 426f b93d a597 f03e
00000370: 1a80 2c3e 75b9 893e 58eb 9b3e 5238 9bbe
00000380: 08b5 b13e d689 ac3d 7968 ddbc 7c22 5e3e
00000390: 974c babd ae47 583e 3608 ccbe b5ca fbbe
000003a0: 62a4 e8be 73d5 dc3e 80da 133e 9fb2 fbbe
000003b0: eba7 d7be 851c f3be 98e6 dbbe 1d31 54bc
000003c0: f77e 1abc 4c8a ca3e ced9 393d 80b1 1c3e
000003d0: 4cd9 c13c ffd6 f1bd c821 7ebd 9b77 413e
000003e0: f0d6 d0be f4de 9e3e 9077 1dbe 2a15 e3be
000003f0: 720e 4e3d 6af0 443e 2060 94bd 6c04 fbbe
-0.44182485 -0.25572866 0.192306 0.38652626 -0.0041204314 -0.25694945 -0.4287823 -0.11834292
0.39062858 0.3324721 0.14526415 -0.15668368 -0.43091315 -0.025589414 -0.2983226 0.006959904
-0.009221263 0.15421222 -0.13163373 0.13148102 -0.42778248 -0.38941303 -0.029937636 0.36126283
-0.22443154 0.0015345396 -0.2732008 0.48542935 -0.1197919 -0.4687477 -0.2570687 -0.26143053
0.30413905 0.08392327 0.16768321 -0.33180094 0.47288904 0.15958913 0.109042004 -0.51130277
0.28531727 0.355815 0.034435023 -0.44465277 -0.035155 0.17266487 -0.39195922 0.30575752
0.23104091 0.065042384 0.16712093 0.079437524 -0.3164012 -0.3017822 0.048056085 0.08606685
0.09437571 -0.31399664 -0.09827565 0.45066816 -0.4455175 -0.30586153 -0.40253448 -0.11433568
-0.17584069 -0.2420379 0.09128849 -0.45652264 -0.018945022 0.39743948 -0.03329191 0.18988186
-0.40029955 -0.26834255 -0.14780582 -0.30351946 -0.34053606 -0.29637235 0.22373371 -0.47863516
-0.13651897 0.049130023 0.16393377 -0.36383823 -0.38253286 -0.40562984 0.044469643 -0.43554348
0.21132205 -0.12289379 0.29617503 0.31703857 0.41524228 -0.28668535 0.15869646 0.14802909
-0.29447547 0.104835466 0.4736729 0.10776856 0.35069457 -0.13620016 0.2835703 0.33575273
-0.1424023 -0.12363144 -0.059878085 -0.28305247 0.36488956 0.2940306 0.400308 0.4892698
-0.4809905 0.27313206 0.4456228 0.03764273 -0.1596287 0.3952948 0.30136132 -0.21059391
-0.041015264 0.2892443 -0.109166816 0.35269567 -0.4473877 -0.26999524 0.23135021 -0.49355552
-0.18857111 0.34731147 -0.39872497 0.44714263 -0.3950516 -0.19823244 -0.04838515 -0.16169907
-0.25877038 -0.30604094 0.1414638 0.5070231 -0.38532314 -0.2235704 -0.12858272 -0.34411868
0.28886473 0.01569811 -0.35419726 -0.18448128 -0.42856884 -0.025612313 0.04895267 0.03384854
0.10472889 -0.46574533 -0.094997875 0.38498175 -0.37457928 -0.50865555 0.40719008 0.48193377
0.2784695 0.4359681 0.43968937 -0.31189364 0.4419037 0.18993637 -0.47184765 -0.45989427
-0.018428544 0.052162327 -0.361912 -0.16124001 -0.07621292 0.4501565 -0.014329894 -0.22844733
-0.43574095 -0.41879866 -0.31350866 0.42521834 -0.019555656 -0.017766127 -0.12118687 0.11619482
-0.22120084 0.17704047 0.36329982 0.317565 0.2632204 -0.43977317 -0.41473988 -0.3054956
-0.30154422 0.33204722 0.08860686 -0.07367689 0.3313015 -0.10797901 0.011257542 0.450745
0.28464112 -0.510505 0.28688672 -0.13459241 -0.051384326 0.15528354 -0.14740753 0.2759345
-0.22939862 0.07484188 -0.28492498 0.33343372 -0.25642136 0.3713259 -0.4558673 0.27747375
-0.21466284 0.2915431 0.09054424 0.46990696 0.16845742 0.26899305 0.3045299 -0.30316406
0.34708428 0.084247276 -0.027027356 0.21692842 -0.090966396 0.21121094 -0.39850014 -0.4917809
-0.45437914 0.431316 0.1443882 -0.49159715 -0.421203 -0.47482696 -0.42949367 -0.012951163
-0.009429685 0.39558637 0.04537373 0.15302086 0.023663186 -0.118085854 -0.062043935 0.18893282
-0.40788984 0.31029475 -0.1537764 -0.44352084 0.050306745 0.19232336 -0.07244897 -0.4902681

layer_1.bias f4 [64]
00000000: 37e9 bfbd fd6c 5a3e ce23 423c c908 8abe
00000010: cc42 07be 4207 b13e 8c33 033c 60d2 37be
00000020: 5360 89be 8781 6bbd 5beb 3bbe 95d7 b4bc
00000030: a732 a3be 73b7 30be 043b 93be b37b 583e
00000040: 6905 a73e c5e4 873e 9c2f de3d 40d4 603e
00000050: 9b6b 8ebe c277 dbbd 7c82 f23d ba62 9dbe
00000060: 1343 e2be dee6 2abe 43c8 c23e 4c16 013f
00000070: 8e93 bb3e eae8 70be bae4 dd3e 8b28 fabe
00000080: 8779 e63e 4d2a bebd 97dc 95be 89e9 083e
00000090: d7ef 0dbe e6da b43e 56b0 6e3e 8db8 94be
000000a0: 632b 82be 8591 ccbe 2d20 7cbe 9bfd ea3e
000000b0: 6cdb 603e 71a0 a7be da7f 8b3e ce0d 8d3e
000000c0: 0165 f03e 6d8c f13e 19f5 b5bd 7f28 c23e
000000d0: 93f2 f9be a4db a6be 558c bc3e 2766 e33e
000000e0: 58c4 dfbe 2b43 74be 1752 ae3e 0f9a 563e
000000f0: 0050 9f3e 132a 19bd 7ba4 5dbe 276a 063f
-0.09370654 0.21330638 0.011849357 -0.26959828 -0.13209075 0.3457585 0.008007895 -0.17951345
-0.26831302 -0.057496574 -0.183515 -0.022075454 -0.31874582 -0.1725748 -0.28755963 0.21140938
0.32621315 0.26541725 0.108489245 0.21955967 -0.2781647 -0.10716201 0.11841294 -0.30739385
-0.441918 -0.16689631 0.38043413 0.5042465 0.36636013 -0.2352635 0.43338567 -0.48859057
0.45014593 -0.09285412 -0.2926986 0.13370337 -0.13861023 0.35323256 0.23309454 -0.2904705
-0.25423726 -0.39954773 -0.24621649 0.4589661 0.21958703 -0.32739595 0.2724598 0.27549595
0.4695206 0.4717745 -0.08884639 0.3792152 -0.48817882 -0.32589447 0.36825815 0.44413874
-0.43704486 -0.23853748 0.34047005 0.20957206 0.31115723 -0.03739364 -0.21644776 0.52505726

layer_2.weight f4 [64, 64]
00000000: b70c da3d 5c76 823d c389 483d b784 e0bc
00000010: 8fd1 b1bd 04e3 fdbc 8433 203d 181c 0bbe
00000020: 5875 8bbc 4192 5d3d ee5f 0f3e 1c3c d8bd
00000030: f8d5 50bc 85ec c0bd 74d1 dcbd 02d3 38bd
00000040: 3a97 1d3c 7171 4dbd 54a4 453d 55a7 29bd
00000050: d75b adbd 6763 66bd 5291 b4bd 5798 a73d
00000060: 7b67 753d 1e64 e03d 4da1 52bd 76ea df3d
00000070: c059 053e 6ca0 e4bd ea32 ccbd ee87 253d
00000080: db80 cb3d a422 9b3d 1fd8 053d 6f98 1cbd
00000090: 3366 9fbd 64c9 d3bb 0004 e5bc f16e 65bb
000000a0: 78fe 34bc a96e a83c ddf9 c2bd b926 c23d
000000b0: 9028 2dbc dd9e 8d3d 156f 013e 1336 aa3d
000000c0: e3a6 4b3d a05f 1bbd e5e6 abbd 3d57 ca3d
000000d0: 55a1 0c3e aa44 c73d 10ae bb3d 83f9 b4bd
000000e0: f0c1 e73c b3d3 553d 010e cf3a a2d9 0a3d
000000f0: 0f99 ccbd 9ad4 c7bd a023 e6bd 36a7 b3bd
00000100: 455f 1bbe f278 05be dd83 37bd 2055 4c3d
00000110: f397 b0bd 51bd 3ebd 53be cd3c 8d2e be3d
00000120: 8ae7 b8ba 8351 323d 98fb 6aba 1c22 adbd
00000130: a17c 99bd b395 463d b961 03be 5ae7 b6bd
00000140: 8bc8 99bd 9ad3 6dbd d34f cbbc 4af8 45bd
00000150: e83c 4f3c bfdb a23d 2761 65bc 167f 91bd
00000160: c278 633c 3821 c43d 48be 48bd 3aed 973d
00000170: 3d27 28bc 9563 bc3b 21db 923d 34f0 3fbd
00000180: 0ae1 b73d 623a 1bbc 3c6b dfbd 2b1f 2b3d
00000190: e59a 3e3d b19d cabd 8705 bf3c c4f8 10be
000001a0: 6247 063e 1b8f d33d 8576 d83c e04d a63d
000001b0: 5a34 ab3d b128 0bbe e6c7 e93d b413 9c3d
000001c0: cd75 12bd db3f 743d 3a23 953d ebe1 0b3d
000001d0: d55b 08be 5674 603d f95e 0bbd f80f 1c3d
000001e0: dcc3 6ebd 5397 c43d d22b eebd 892f 0cbd
000001f0: 0370 bcbd 369f ebbc 008e 1d3d bfd1 78bd
00000200: 9eb9 3ebd 2847 84bc b464 21bd f849 4fbd
00000210: 3d92 c83b b7c0 91bd 1298 203d fdf8 c53c
00000220: 53ee f5bd a83f 80bc ab7f 83bd 5600 0dbd
00000230: fcc8 dbbd bc82 863d 0968 013d 3f17 edbd
00000240: ae14 06be a493 d53c 9d62 abbd 6287 28bc
00000250: 2f2d ad3d db8e 433d 9b81 f7bc 9689 1abe
00000260: 2b73 5dbd 6ec8 7fbd e488 fdbd fe3e 01be
00000270: 6c7d be3b fd73 e83d 83d9 a8bd 47ed 97bd
00000280: 548a 88bc 0ab8 1c3d 1343 d8bd 3036 fd3c
00000290: 6f44 54bc 2ec1 8f3d ff64 d2bd f607 acbc
000002a0: c8c4 793d 970f 88bd 07c7 473c d279 9a3d
000002b0: 8871 c43c 7215 d2bb 537d e5bd 7d77 b13d
000002c0: c7e2 29bc 0855 04bd 1d0a 0abe 5c08 29bd
000002d0: c362 ac3d 2ec5 f43c befb c6bd 6482 b9bd
000002e0: 6ffa 5cbd 5b1c adbd 2159 563d 7ae7 513c
000002f0: 14dd 98bd fd7e ba3d 4c51 623d 5942 01be
00000300: 890f 66bd 0234 c4b9 333b 34bc c1f7 9e3d
00000310: e372 2c3d 8c91 77bd bc4d b4bd 8a37 823c
00000320: 0b02 7b3d 8b80 b7bd 7f90 d13d 9198 423c
00000330: 948a a23d d5a1 943d 557d b2bd 22bc 833d
00000340: f7bc a23d dd75 d9bd 7e7a f43d a2cb adbd
00000350: 6d11 21bd ac3a 873d 174d 0cbe c16a a4bd
00000360: e3cc ba3b b503 b9bc 0818 17bd ac3e 75bc
00000370: 432a 2a3d 8720 b03d 089a 80bd 4c2a c13c
00000380: 0cd0 3fbd 859c d73d 20cd 9f3c 6c88 e33d
00000390: 4302 1abe 0338 8c3d 217c d13d 2a76 6e3c
000003a0: 4282 29bd 9b9d f1bc 9d7c 60bd 1fba d83d
000003b0: 6d2b a9bd 5405 983b 604a ffbc 3fad 82bc
000003c0: a3c2 a83d 2844 14be 73e2 d13d ed97 053e
000003d0: eac1 8439 7e15 91bd 73ed 9bbc b599 b1bc
000003e0: 5278 e7bd aeb6 c83c 034b c6bc de94 5b3d
000003f0: ee6a 7a3d db54 453c 282a 863d e343 ecbd
0.106469564 0.063702315 0.048959505 -0.027407033 -0.08682548 -0.030992039 0.03911163 -0.13584936
-0.017023727 0.054094557 0.14001438 -0.1055834 -0.012746327 -0.094201125 -0.107821375 -0.045123108
0.009618575 -0.050157014 0.04825242 -0.041419346 -0.08464783 -0.05624714 -0.0881678 0.081833534
0.05991314 0.10956596 -0.05142336 0.10933392 0.13022518 -0.111634105 -0.099706486 0.040412836
0.099366866 0.075749665 0.032676812 -0.03823131 -0.07783165 -0.0064632166 -0.027956009 -0.0035008753
-0.011046998 0.02056058 -0.09520314 0.09480042 -0.010568753 0.069150664 0.1264003 0.08311095
0.049719702 -0.037932992 -0.08393649 0.09879921 0.13733418 0.097298935 0.09164059 -0.08836653
0.028290719 0.052203845 0.001579702 0.033898957 -0.09990131 -0.097573474 -0.11237264 -0.08772127
-0.15173061 -0.13034418 -0.04480349 0.04988587 -0.08622732 -0.046567265 0.025115168 0.092862226
-0.001410709 0.043534767 -0.0008963882 -0.084537715 -0.07494474 0.048482608 -0.12830247 -0.089308456
-0.07508954 -0.058063127 -0.024818337 -0.04833249 0.0126487985 0.079520695 -0.014000214 -0.07104318
0.013883771 0.095766485 -0.04900959 0.07418294 -0.010263261 0.005749176 0.07170702 -0.046859935
0.0897847 -0.009474369 -0.10909125 0.04177777 0.046534438 -0.098933585 0.023318065 -0.14157397
0.13113168 0.103300296 0.026423702 0.08120322 0.08359595 -0.13589741 0.11415081 0.076209456
-0.035756875 0.05963121 0.072821096 0.034151 -0.13316281 0.054798447 -0.03402612 0.038101166
-0.058292255 0.09599175 -0.11629452 -0.03422502 -0.09201052 -0.028762441 0.0384655 -0.060746904
-0.046563737 -0.016147211 -0.03940268 -0.05060765 0.0061209486 -0.071168356 0.039207526 0.024166578
-0.12008347 -0.015655354 -0.06420835 -0.03442415 -0.10731694 0.06567904 0.031593356 -0.115766995
-0.13093826 0.026071377 -0.08368418 -0.010286184 0.08455884 0.04774366 -0.030213168 -0.15091547
-0.05406491 -0.062447004 -0.123796254 -0.12621686 0.0058132913 0.11350248 -0.08244612 -0.07418304
-0.016667522 0.03826145 -0.105596684 0.030909628 -0.012955769 0.07019268 -0.1027317 -0.02099989
0.06097868 -0.066435985 0.012193448 0.07542767 0.023979917 -0.006411248 -0.11205544 0.08665369
-0.010369009 -0.032307655 -0.1348042 -0.041267738 0.08417275 0.029879179 -0.09715985 -0.09058073
-0.05394977 -0.08452674 0.052331094 0.012811536 -0.07464042 0.09106252 0.055253312 -0.12622966
-0.05616716 -0.00037422782 -0.011000442 0.07762099 0.042101752 -0.06044154 -0.08803889 0.015895624
0.061281245 -0.089600645 0.102326386 0.011877195 0.07936588 0.072574295 -0.087153114 0.06432368
0.079461984 -0.10618184 0.11937426 -0.084861055 -0.03932326 0.06602988 -0.13701282 -0.08028174
0.005700694 -0.022584775 -0.036888152 -0.014968555 0.04154421 0.08599954 -0.06279379 0.023579739
-0.04682927 0.105279006 0.01950699 0.11110005 -0.15039925 0.06846621 0.10228754 0.01455454
-0.04138399 -0.029494097 -0.05480634 0.10582375 -0.08260236 0.004639307 -0.031163394 -0.01595175
0.08240249 -0.14479125 0.1024827 0.13046236 0.0002532148 -0.070841774 -0.019034123 -0.021679739
-0.11302246 0.024501171 -0.02420569 0.053608768 0.061137132 0.012044157 0.065510094 -0.11536386

layer_2.bias f4 [64]
00000000: c1c0 e13c b8e2 0d3c b17d dabd f1a4 803d
00000010: 6814 d93d e07a 02be f721 eabc 3ee8 513d
00000020: ebf0 a63d 7214 2bbd df07 403d 941b c9bc
00000030: 09a6 ac3d 2583 b23d 69e4 77bc 2dc3 1c3e
00000040: 17ad 07bd 269f 0f3d 2daf 533d 995f ef3d
00000050: ab2c 06bd d4d2 343d 1cdd 39bd 5405 19bd
00000060: 39b0 763c 8234 2e3d b3c4 723d 9c48 b03d
00000070: f46e 9bbc 206f 74bd d8ad 3f3d 16a6 b6bd
00000080: b70a db3d c1fa e43d d41c d3bd b2c9 973d
00000090: cfb2 913d 9145 1c3d 74fa 39bd a15e 883d
000000a0: ce2c 20bd e7c9 7f3c 9d46 dd3d d4e1 d3bc
000000b0: 7734 d3bd 9099 91bd be2e afbd 3cb8 24bc
000000c0: 35c2 3bbd b8c0 453d 2070 dc3c aca7 88bd
000000d0: ac5d 0a3e e99b c43c 20f3 d3bd 62d3 a9bd
000000e0: a81a 88bd b866 d4bc f23d 6abd 510a 0d3d
000000f0: ff93 b43d fb9b 33bd fff2 df3d fe95 37bb
0.027557733 0.008660011 -0.10668505 0.0628146 0.10599595 -0.12742186 -0.028580649 0.051246874
0.0815142 -0.041767545 0.046882506 -0.024549283 0.08430106 0.0871642 -0.015130141 0.15308829
-0.033124056 0.035063885 0.051680733 0.11688156 -0.032757442 0.044146374 -0.045376882 -0.037358597
0.015056663 0.042530544 0.05926962 0.08607599 -0.018973805 -0.05967629 0.04679665 -0.08918397
0.10695403 0.1118064 -0.10308233 0.07411517 0.07114183 0.03815228 -0.045404866 0.06658674
-0.03910523 0.015612102 0.10804484 -0.02586452 -0.10312741 -0.07109368 -0.08553837 -0.0100536905
-0.045839507 0.048279494 0.026908934 -0.06672606 0.13512295 0.024000125 -0.10349107 -0.08292271
-0.06645709 -0.025927886 -0.057187982 0.034433667 0.088172905 -0.043849926 0.1093502 -0.0028012986

layer_out.weight f4 [1, 64]
00000000: 6489 133d e493 b03d ea10 84bd c6b6 6fbd
00000010: 9dfa 90bd cc12 49bd 67e0 8bbb 9a19 d23d
00000020: 586b 753d 437f ec3d 6c04 c5bd 0876 dabd
00000030: 973f 033e e129 b4bd e5a8 363d 7936 f03d
00000040: ab1d e53d c499 99bd dbbb a9bd 2b17 063d
00000050: 3fa5 fabd 34fb 00be 5635 9f3d 0332 f93d
00000060: 6981 c13c 43f8 acbd d2f5 89bd 2cb7 c0bd
00000070: 5325 ccbc ec5e 77bd 7cc0 c13d cdd7 18be
00000080: d965 d63d b6b9 ef3c ada5 50bd febd 68bd
00000090: e9d8 743d 7c53 f3bd f7d9 ce3d 0fda ab3d
000000a0: 67df 933d 0c94 fd3d 429f b4bd 3ef8 01bd
000000b0: f910 1d3d e04c 9e3d 9db4 93bd 83a5 0abd
000000c0: d6cd 85bd 2bb0 15b9 7aab 4dbd bdef 133e
000000d0: 7765 6d3d 4ff3 98bd f823 043e 4f0f b53d
000000e0: e6b7 a93d 3370 a8bd 5cf3 96bd eb0d 163d
000000f0: ca0b 9d3d 6d34 173d 551d 4a3b cbc0 e43d
0.036019698 0.08621958 -0.064485386 -0.058523916 -0.07079051 -0.04909019 -0.004268694 0.10258789
0.059916824 0.11547711 -0.09619984 -0.10667044 0.12817226 -0.0879705 0.044594664 0.1172914
0.11187299 -0.075000316 -0.08287784 0.03273694 -0.122385494 -0.12595826 0.07773845 0.12167742
0.023621278 -0.0844579 -0.0673634 -0.09409937 -0.024920141 -0.06039326 0.094605416 -0.14926071
0.10468645 0.029263359 -0.05093925 -0.056821816 0.059777174 -0.11881158 0.10100167 0.08391201
0.07220345 0.12381753 -0.088194385 -0.031730883 0.038346265 0.077295065 -0.072121836 -0.03384925
-0.06533401 -0.00014275375 -0.05021236 0.14446922 0.057958093 -0.074682824 0.12904346 0.088408105
0.08287029 -0.08224525 -0.07370636 0.036634367 0.07668264 0.03691523 0.0030840237 0.11169585

batchnorm1.weight f4 [64]
00000000: 3bc1 7a3f 6c01 7c3f 4eee 823f d680 813f
00000010: 8d79 7f3f 8774 7d3f 5b84 7d3f 9898 7d3f
00000020: 403a 833f 5e58 7b3f fecd 803f 2423 7f3f
00000030: 0300 7e3f dbd5 773f 5a05 813f 352e 7b3f
00000040: 922d 7e3f d23b 833f b6e9 833f 29a8 803f
00000050: 2719 7b3f 9e15 7c3f 5e2e 823f 7407 7f3f
00000060: 223a 7b3f a616 7f3f cf13 833f 7e07 7a3f
00000070: 44cf 803f a736 7c3f 9e64 783f 0447 783f
00000080: 6289 793f 9d10 833f 7980 813f 0b92 833f
00000090: c464 7c3f 4b4e 803f 71c8 823f e6ee 7d3f
000000a0: bc66 833f 27c0 823f e242 7a3f a2ec 7f3f
000000b0: 1594 783f ab2e 823f dfa6 7f3f 519f 7e3f
000000c0: d4b7 833f 0fa4 853f c7a0 7e3f 9f10 783f
000000d0: 031f 813f 0559 7d3f d6c3 7d3f ef7b 833f
000000e0: 36c2 863f e24e 7d3f 08fe 793f 68b9 7c3f
000000f0: aa7d 783f adbd 843f e6d9 813f ccc5 7f3f
0.97951096 0.9843967 1.0228975 1.0117443 0.99794847 0.9900593 0.99030083 0.99060965
1.0252151 0.9818171 1.0062864 0.99662995 0.9921877 0.9681069 1.0079758 0.9811738
0.99288285 1.0252631 1.0305698 1.0051318 0.98085254 0.98470485 1.01704 0.9962075
0.9813558 0.99643934 1.024042 0.9766768 1.0063252 0.9852089 0.9702853 0.9698336
0.97475255 1.0239445 1.0117332 1.0278944 0.98591256 1.0023893 1.021742 0.99192655
1.0265727 1.021489 0.97758305 0.9997045 0.97100955 1.0170492 0.99864 0.9946185
1.0290475 1.0440692 0.99464077 0.9690036 1.0087589 0.9896396 0.99126947 1.0272197
1.0528018 0.9894849 0.97653246 0.9872041 0.9706675 1.0370384 1.0144622 0.9991119

batchnorm1.bias f4 [64]
00000000: fbdf fd3c 2e52 cf3c 3aaf 683b fe36 bb3b
00000010: 5df6 063a 0d75 873c c3a4 28bd cf72 38bc
00000020: a509 73bc c39d 91bb dc91 b13c cae9 e33c
00000030: a241 aebc ac98 053d 400d 2bbd 4313 27bc
00000040: f434 2abc 44ce 17bb 5003 debc e42c 0f3d
00000050: c68a 783c 6f70 183d aa77 143d 7837 bfbc
00000060: 02cc 293d 6b73 e73b c6c6 90ba f921 c43c
00000070: f89e 20bc 6fa5 f7bc b404 c6b8 6e72 2d3d
00000080: 2bbf 053c b47f e6bc 07b9 9bbc 5c0e 59bb
00000090: 884a 89bc 678a a73c 4608 f3bb da96 b23c
000000a0: ce1d 98bc 0801 933c 98fa 0c3c 0a46 763c
000000b0: 47a7 883c ce8f d93c e68b 173d d483 de3c
000000c0: d721 023d 14a3 aebc 7dee 203d 2d09 083c
000000d0: 1d76 b63c da6f 4c3c 4226 bebb 564a 80bb
000000e0: 6c5d edbc aa1f e83c 48dc 3ebc 67ae c73c
000000f0: ed48 51bc 76ff 2ebc 64a2 adbc ded0 a23c
0.030990591 0.025307741 0.0035504834 0.0057133427 0.00051484053 0.016535306 -0.041172754 -0.011257841
-0.014833842 -0.0044438555 0.021675996 0.02782144 -0.02127153 0.032616302 -0.041760683 -0.010197463
-0.010388602 -0.0023163715 -0.027101189 0.03495492 0.015169805 0.0372166 0.036246933 -0.02334188
0.041454323 0.0070633194 -0.0011045567 0.02394198 -0.009803526 -0.030230252 -9.442252e-05 0.042345457
0.008163254 -0.028137065 -0.019009126 -0.003312013 -0.016759172 0.020451738 -0.0074167578 0.021800447
-0.0185689 0.017944828 0.008604668 0.015031347 0.016681327 0.02655783 0.036998652 0.02716247
0.031770553 -0.021317996 0.03928994 0.008302969 0.022273118 0.012477839 -0.0058029005 -0.0039151115
-0.028975211 0.028335411 -0.011649199 0.024375154 -0.0127737345 -0.010681024 -0.021195598 0.019874986

batchnorm1.running_mean f4 [64]
00000000: e54c 4a3e f3e1 b13e 545b 833e 3811 043e
00000010: 07a5 363d c924 ff3e df71 803e 2bbe 463e
00000020: 9d05 e03d 2b21 873e 2937 393e b910 4d3e
00000030: 5a46 e93c f50c e23d e3bf d13d e96a e13e
00000040: 5fdb d53e f0ae b03e 1f72 9f3e 7c1c c43e
00000050: 530c 783d bd4f 793e 5461 903e 70a7 c23d
00000060: d1b9 573d e5e1 2f3e 275a cc3e ae72 2e3f
00000070: fa39 f33e 7d9b 073e c5dd f23e 38f7 f33d
00000080: ce47 103f b3f5 283e 6c29 023e c686 a13e
00000090: c78b de3d ee79 cd3e 9695 c53e 6832 523e
000000a0: 046e 733e ac5e 033e 5756 903d de14 003f
000000b0: db40 f63e 6823 b73a 7c56 c13e 8975 df3e
000000c0: 607c fb3e 666c 0c3f 4a3b 5a3e 5e59 ce3e
000000d0: e1c2 213d 7dab 183e ea6c ed3e 848d 023f
000000e0: 1df9 b53c 5292 293e ae17 ff3e 461c f33e
000000f0: de41 bf3e 992f 993d bd62 3b3e 22c4 113f
0.19755895 0.34742698 0.25655615 0.12897193 0.044590976 0.49832752 0.25086877 0.19408481
0.10938571 0.26392493 0.18087448 0.2002591 0.028475929 0.110376276 0.102416776 0.44026878
0.4176893 0.34508467 0.31141755 0.38302982 0.06055863 0.24346824 0.28199255 0.095045924
0.052667443 0.17176016 0.3991253 0.6814374 0.4750517 0.13242908 0.47434822 0.119123876
0.56359565 0.16499977 0.12711114 0.31548136 0.10866504 0.40132087 0.38590688 0.20527041
0.23772436 0.12829083 0.07047718 0.5003184 0.48096356 0.0013972344 0.37761295 0.4364436
0.49118328 0.548529 0.2131168 0.40302557 0.03949249 0.14909168 0.46372157 0.50997186
0.022213513 0.16559723 0.49822754 0.47482508 0.3735494 0.07479782 0.18299384 0.569399

batchnorm1.running_var f4 [64]
00000000: 9b95 c13d 09a8 193e 0149 153e 093f 573d
00000010: 281c 0f3c 0fe7 6c3e bbe5 ee3d 1e93 cd3d
00000020: 1119 643d 2e5d 5b3e 5b17 f33d 00dc b13d
00000030: e94a b33b 4fba 0b3d f763 423d 37b8 923e
00000040: 2d03 403e 61c4 fe3d 1ed8 4a3e 7cb3 763e
00000050: 9752 c93c cb77 363e f248 e13d 57b5 123d
00000060: efcb 873c 39f7 8f3d ce4d df3d 5085 d73e
00000070: 3133 643e 8ab8 523d 160d 293e b6df cd3d
00000080: c7a5 9f3e 00e6 a63d 86af 8e3d 9ace 4b3e
00000090: 66d4 413d 7d03 ee3d 73e1 393e 9349 103e
000000a0: 5e0d 263e 823e e33d 96f5 5f3c eed6 453e
000000b0: 15d6 913e f8ea 2739 3b1d 1d3e 5c79 823e
000000c0: 7ba3 173e 37f1 483e 5012 e43d 85bf c63d
000000d0: 1954 5a3c cc63 a93d 4085 533e c082 763e
000000e0: 9ca0 b63b 4d40 b53d 77b2 a73e a850 aa3e
000000f0: be3a 093e 4718 673c d207 f33d e4f4 4e3e
0.09452363 0.15005507 0.1457863 0.05255035 0.00873474 0.23135017 0.11664911 0.10037826
0.055687968 0.21422264 0.11869689 0.0868454 0.0054715765 0.034113225 0.047458615 0.2865617
0.18751211 0.124398 0.19809005 0.24091905 0.024575515 0.17819135 0.11000241 0.03581747
0.016576735 0.07029576 0.10903512 0.42093897 0.22285153 0.05144552 0.16508898 0.10052435
0.31181166 0.08149338 0.06967072 0.19903031 0.0473217 0.11621759 0.18152408 0.14090566
0.16216037 0.11095907 0.013669392 0.1932027 0.28483644 0.00016013894 0.15343182 0.25483215
0.14808457 0.19623266 0.11136305 0.09704498 0.0133257145 0.08270988 0.206563 0.24073315
0.0055733453 0.08850155 0.32753345 0.3326466 0.13401315 0.014104909 0.11866726 0.20210606

batchnorm2.weight f4 [64]
00000000: 4ac7 7f3f 11f1 873f f61f 883f 1b3e 853f
00000010: 48a2 843f e60f 7e3f 1f3b 7b3f 0f40 7b3f
00000020: f00e 803f 0006 883f ab9b 853f 9069 843f
00000030: 1b12 873f e2f6 843f 0b09 8a3f 642d 833f
00000040: bd3f 803f 764b 7e3f 7d51 853f d730 813f
00000050: 5143 7f3f bf02 833f e3d0 7e3f 153f 843f
00000060: c6d1 803f 7a0f 823f 17b8 8a3f eacb 783f
00000070: fd4c 823f 2a18 853f 83bb 7b3f fa19 843f
00000080: 8a45 7c3f 9e26 813f 4795 813f 0666 7b3f
00000090: 9060 813f 9eb8 853f ffc4 883f 4b49 873f
000000a0: f08b 883f d892 803f 2556 7f3f edc8 7e3f
000000b0: 6fb6 7b3f d9b3 883f eb73 793f 2460 823f
000000c0: 43e1 803f da8d 7d3f 9d6e 823f e8b8 843f
000000d0: e760 863f 2395 833f 1ea0 823f a3b7 853f
000000e0: 99be 863f 8944 873f 84f7 7f3f c390 803f
000000f0: 794e 883f 52be 803f 1502 7b3f 409c 863f
0.99913466 1.0620443 1.0634754 1.0409578 1.0362024 0.9924301 0.98137087 0.9814462
1.0004559 1.0626831 1.0438131 1.0344715 1.05524 1.0387843 1.078401 1.0248227
1.0019451 0.99333894 1.0415493 1.009303 0.9971209 1.0235213 0.99537486 1.0331751
1.0064018 1.0160973 1.083743 0.9718615 1.0179745 1.0397999 0.98332995 1.0320427
0.9854361 1.008991 1.0123681 0.9820255 1.0107594 1.0446966 1.0685118 1.0569242
1.0667706 1.0044813 0.9974082 0.9952534 0.98325247 1.0679885 0.974425 1.018559
1.0068744 0.99044573 1.0190006 1.0368929 1.0498322 1.0279888 1.0205114 1.0446666
1.0526916 1.056779 0.99987054 1.0044178 1.0648948 1.0058081 0.9805005 1.0516434

batchnorm2.bias f4 [64]
00000000: 18da a0bc 6dbf aabc dfa4 8a3c 6ae4 c63c
00000010: 0851 833c 406e 8f3c 279b 443c 5b21 6cbc
00000020: 4930 87bc c62c b3bc 0594 e83c 3bb5 ce3c
00000030: 42e6 bebc 624e 9e3c b66a febc 33d2 8fbc
00000040: 7bae 8bbc bfd6 ae3c 80c7 b53c 3a1b 9fbc
00000050: 860d 913c 6512 a83c f093 98bc 62dd aebc
00000060: 3e51 b5bc b401 913c 0556 da3c 3651 953c
00000070: 09f5 b63c 4049 cd3c ffee a3bc e774 cc3c
00000080: 0611 a3bc 3789 87bc 868d c23c eadc 683c
00000090: cdfa b0bc 6920 a63c d986 c9bc 1f37 b4bc
000000a0: f2af c3bc 8095 92bc e945 9f3c 36da 943c
000000b0: 299d a9bc 14df e1bc 878c a43c 60a0 c93c
000000c0: 82a5 9d3c ca1a 773c fe11 9f3c 1d94 afbc
000000d0: d6f9 90bc 3ef5 b33c c883 afbc 84c7 b1bc
000000e0: 7ba4 c6bc 1798 b03c 54ec a53c 0fc3 b4bc
000000f0: 39fa bcbc 3581 8fbc 4734 443a 6fa4 d1bc
-0.019635245 -0.020843232 0.01692432 0.024278838 0.01602985 0.017508626 0.011999882 -0.014412249
-0.016502516 -0.021871936 0.028390894 0.025232902 -0.023303155 0.019324485 -0.031056743 -0.017556285
-0.017050972 0.021342633 0.022189856 -0.019422162 0.017706644 0.020516584 -0.01862523 -0.021345798
-0.022133466 0.017701007 0.026652345 0.018227201 0.022333639 0.025059342 -0.020011423 0.024958087
-0.019905578 -0.016544921 0.023749124 0.014212826 -0.021603966 0.020279126 -0.024600433 -0.02199894
-0.023887608 -0.017893553 0.019442515 0.018170457 -0.020704823 -0.027572192 0.02008654 0.024612606
0.01924396 0.015082071 0.019417759 -0.02143293 -0.017697256 0.021967527 -0.021425143 -0.021701582
-0.024248352 0.021556897 0.020254292 -0.022065667 -0.023068534 -0.017517665 0.00074845966 -0.025591103

batchnorm2.running_mean f4 [64]
00000000: 7812 733e 529d 7e3e bfe3 403e 89c7 c43e
00000010: 10b0 d13e 43ae 7d3e 34a7 8b3e 46c4 df3e
00000020: 65b3 b43e 604f 6c3e a4d8 c63e c55a a13e
00000030: 899d aa3e 8bf7 883e 0a3f 663e 806e 9e3e
00000040: 183f 343e 1238 4d3e d68c a93e 96cc c83e
00000050: b326 da3d c99e d53e 7fe0 8b3e 688d 0a3e
00000060: af0c 8e3e 736f ab3e 9387 2b3e 9838 fd3e
00000070: 030a 213e 4008 7d3e 3a0e a93e 4e22 803e
00000080: 8a46 a33e 569b b13e 2f0f 0f3e 6869 643e
00000090: 0b58 953e 21aa a73e 25ce 753e 6f19 583e
000000a0: 27c9 883e f833 bf3e 6174 a73e f92b 573e
000000b0: c049 353e 4dde 813e 4940 cc3e 47b5 c33e
000000c0: 4512 343e b0a2 bd3e bbc5 8c3e ece4 213e
000000d0: 79f7 c23e e4fc de3e 0d58 043e e6c8 593e
000000e0: 6449 9f3e 0cd5 553e 12e2 993e 2efd a63e
000000f0: 7889 d13e 10a5 5a3e 65bf eb3e c670 633e
0.23737514 0.248647 0.18836878 0.38433483 0.40954638 0.24773507 0.27276003 0.43704432
0.35293117 0.23077154 0.3883716 0.31514564 0.33323315 0.2675136 0.22484985 0.3094368
0.17602193 0.2004092 0.33115262 0.39218587 0.106519125 0.41722706 0.27319714 0.13530505
0.27744052 0.33483467 0.16750936 0.4945724 0.15726475 0.24710178 0.33018667 0.25026172
0.31889755 0.34688824 0.13970636 0.22305834 0.29168734 0.32746986 0.24004419 0.21103452
0.26715967 0.37344337 0.32705978 0.21012868 0.17703915 0.25364915 0.39892796 0.3822424
0.17585094 0.37038183 0.27494606 0.15809983 0.38079432 0.43552315 0.12924214 0.21268043
0.3111068 0.20882052 0.3005529 0.32615036 0.40925193 0.21352029 0.4604446 0.22210988

batchnorm2.running_var f4 [64]
00000000: 6b89 043e 9a84 e23d cc27 323d afa4 d43e
00000010: 3026 943e a9ec 5a3e 6e1b 973e 34ca 963e
00000020: 2918 563e a314 a33d 20e4 ba3e b2fc 5d3e
00000030: 32ec a53e b199 fc3d d8d2 b33d f8d9 483e
00000040: 7e19 483d 0572 dd3d 5424 5c3e ba2e 7c3e
00000050: b0eb 343d 1697 e33e 9f65 3e3e be5f 543d
00000060: 708c 053e 9708 483e 93c3 163d 60e9 183f
00000070: acfa 963d 40c1 4a3e 9fcf 423e 4cd0 1f3e
00000080: 189f 0c3e ec0c 813e c608 0d3e d719 a13d
00000090: 93f7 263e 7338 153e 1ad9 963d d836 413d
000000a0: 2c82 023e ed50 873e 07c3 313e 5bfc 813d
000000b0: 6d8f 2d3e dfc1 d43d 7813 673e 8d05 ad3e
000000c0: c7e9 d23d 0c3b b03e e28d 443e 1a9f 643d
000000d0: 526d 933e c3c4 d93e 045f 2a3d e959 973d
000000e0: 02af 553e 19ba a93d 9877 4b3e 6c4b 1b3e
000000f0: b88d 4f3e 1c6f e53d 9e2d ac3e 0a8e 7c3d
0.12943046 0.11060448 0.043494985 0.41531894 0.28935385 0.21379341 0.29513115 0.29451144
0.20907654 0.079629205 0.3650217 0.21678427 0.32406765 0.12334002 0.0878045 0.19614398
0.048852436 0.10812763 0.21498233 0.246272 0.04417008 0.44451207 0.18593453 0.05184912
0.13041854 0.19534527 0.036807608 0.597311 0.073720306 0.19800282 0.19024514 0.15606803
0.13732564 0.2520517 0.13772878 0.07866257 0.1630538 0.14572315 0.073656276 0.047171444
0.12744969 0.2642893 0.17359553 0.06346961 0.16949244 0.103885405 0.2256602 0.33793297
0.10298496 0.3442005 0.19194749 0.055815794 0.28794342 0.4253293 0.04159452 0.07390196
0.20867541 0.082874484 0.1986984 0.1516549 0.20268905 0.11202833 0.33628553 0.061658897
